…
I1217 21:22:06.519192 30861 net.cpp:333] The NetState phase (0) differed from the phase (1) specified by a rule in layer output
I1217 21:22:06.519912 30861 net.cpp:59] Initializing net from parameters: 
name: "GAN"
state {
  phase: TRAIN
  level: 0
  stage: ""
}
layer {
  name: "input_data"
  type: "Python"
  top: "gray_image"
  top: "color_image"
  top: "label"
  top: "label_g"
  python_param {
    module: "data_layer"
    layer: "DataLayer"
    param_str: "{\'batch_size\': 1 , \'root_folder\': \'out_unaug_64x64/\', \'source\': \'train.txt\'}"
  }
}
layer {
  name: "g_conv_1"
  type: "Convolution"
  bottom: "gray_image"
  top: "g_conv_1"
  param {
    name: "g_conv_1_w"
    lr_mult: 1
    decay_mult: 1
    param_propagate_down: false
  }
  param {
    name: "g_conv_1_b"
    lr_mult: 2
    decay_mult: 0
    param_propagate_down: false
  }
  propagate_down: false
  convolution_param {
    num_output: 16
    pad: 1
    kernel_size: 3
    stride: 1
    weight_filler {
      type: "xavier"
    }
    bias_filler {
      type: "constant"
      value: 0
    }
  }
}
layer {
  name: "g_bn_1"
  type: "BatchNorm"
  bottom: "g_conv_1"
  top: "g_conv_1"
  batch_norm_param {
    use_global_stats: false
  }
}
layer {
  name: "g_scale_1"
  type: "Scale"
  bottom: "g_conv_1"
  top: "g_conv_1"
  scale_param {
    bias_term: true
  }
}
layer {
  name: "g_relu_1"
  type: "ReLU"
  bottom: "g_conv_1"
  top: "g_conv_1"
}
layer {
  name: "g_conv_2"
  type: "Convolution"
  bottom: "g_conv_1"
  top: "g_conv_2"
  param {
    name: "g_conv_2_w"
    lr_mult: 1
    decay_mult: 1
    param_propagate_down: false
  }
  param {
    name: "g_conv_2_b"
    lr_mult: 2
    decay_mult: 0
    param_propagate_down: false
  }
  propagate_down: false
  convolution_param {
    num_output: 32
    pad: 1
    kernel_size: 3
    stride: 1
    weight_filler {
      type: "xavier"
    }
    bias_filler {
      type: "constant"
      value: 0
    }
  }
}
layer {
  name: "g_bn_2"
  type: "BatchNorm"
  bottom: "g_conv_2"
  top: "g_conv_2"
  batch_norm_param {
    use_global_stats: false
  }
}
layer {
  name: "g_scale_2"
  type: "Scale"
  bottom: "g_conv_2"
  top: "g_conv_2"
  scale_param {
    bias_term: true
  }
}
layer {
  name: "g_relu_2"
  type: "ReLU"
  bottom: "g_conv_2"
  top: "g_conv_2"
}
layer {
  name: "g_pooling_2"
  type: "Pooling"
  bottom: "g_conv_2"
  top: "g_pooling_2"
  top: "g_pooling_2_mask"
  pooling_param {
    pool: MAX
    kernel_size: 2
    stride: 2
  }
}
layer {
  name: "g_conv_3"
  type: "Convolution"
  bottom: "g_pooling_2"
  top: "g_conv_3"
  param {
    name: "g_conv_3_w"
    lr_mult: 1
    decay_mult: 1
    param_propagate_down: false
  }
  param {
    name: "g_conv_3_b"
    lr_mult: 2
    decay_mult: 0
    param_propagate_down: false
  }
  propagate_down: false
  convolution_param {
    num_output: 64
    pad: 1
    kernel_size: 3
    stride: 1
    weight_filler {
      type: "xavier"
    }
    bias_filler {
      type: "constant"
      value: 0
    }
  }
}
layer {
  name: "g_bn_"
  type: "BatchNorm"
  bottom: "g_conv_3"
  top: "g_conv_3"
  batch_norm_param {
    use_global_stats: false
  }
}
layer {
  name: "g_scale_3"
  type: "Scale"
  bottom: "g_conv_3"
  top: "g_conv_3"
  scale_param {
    bias_term: true
  }
}
layer {
  name: "g_relu_3"
  type: "ReLU"
  bottom: "g_conv_3"
  top: "g_conv_3"
}
layer {
  name: "g_pooling_3"
  type: "Pooling"
  bottom: "g_conv_3"
  top: "g_pooling_3"
  top: "g_pooling_3_mask"
  pooling_param {
    pool: MAX
    kernel_size: 2
    stride: 2
  }
}
layer {
  name: "g_conv_4"
  type: "Convolution"
  bottom: "g_pooling_3"
  top: "g_conv_4"
  param {
    name: "g_conv_4_w"
    lr_mult: 1
    decay_mult: 1
    param_propagate_down: false
  }
  param {
    name: "g_conv_4_b"
    lr_mult: 2
    decay_mult: 0
    param_propagate_down: false
  }
  propagate_down: false
  convolution_param {
    num_output: 128
    pad: 1
    kernel_size: 3
    stride: 1
    weight_filler {
      type: "xavier"
    }
    bias_filler {
      type: "constant"
      value: 0
    }
  }
}
layer {
  name: "g_bn_4"
  type: "BatchNorm"
  bottom: "g_conv_4"
  top: "g_conv_4"
  batch_norm_param {
    use_global_stats: false
  }
}
layer {
  name: "g_scale_4"
  type: "Scale"
  bottom: "g_conv_4"
  top: "g_conv_4"
  scale_param {
    bias_term: true
  }
}
layer {
  name: "g_relu_4"
  type: "ReLU"
  bottom: "g_conv_4"
  top: "g_conv_4"
}
layer {
  name: "g_conv_5"
  type: "Convolution"
  bottom: "g_conv_4"
  top: "g_conv_5"
  param {
    name: "g_conv_5_w"
    lr_mult: 1
    decay_mult: 1
    param_propagate_down: false
  }
  param {
    name: "g_conv_5_b"
    lr_mult: 2
    decay_mult: 0
    param_propagate_down: false
  }
  propagate_down: false
  convolution_param {
    num_output: 64
    pad: 1
    kernel_size: 3
    stride: 1
    weight_filler {
      type: "xavier"
    }
    bias_filler {
      type: "constant"
      value: 0
    }
  }
}
layer {
  name: "g_bn_5"
  type: "BatchNorm"
  bottom: "g_conv_5"
  top: "g_conv_5"
  batch_norm_param {
    use_global_stats: false
  }
}
layer {
  name: "g_scale_5"
  type: "Scale"
  bottom: "g_conv_5"
  top: "g_conv_5"
  scale_param {
    bias_term: true
  }
}
layer {
  name: "g_relu_5"
  type: "ReLU"
  bottom: "g_conv_5"
  top: "g_conv_5"
}
layer {
  name: "g_upsample_1"
  type: "Upsample"
  bottom: "g_conv_5"
  bottom: "g_pooling_3_mask"
  top: "g_upsample_1"
  upsample_param {
    scale: 2
  }
}
layer {
  name: "g_conv_6"
  type: "Convolution"
  bottom: "g_upsample_1"
  top: "g_conv_6"
  param {
    name: "g_conv_6_w"
    lr_mult: 1
    decay_mult: 1
    param_propagate_down: false
  }
  param {
    name: "g_conv_6_b"
    lr_mult: 2
    decay_mult: 0
    param_propagate_down: false
  }
  propagate_down: false
  convolution_param {
    num_output: 32
    pad: 1
    kernel_size: 3
    stride: 1
    weight_filler {
      type: "xavier"
    }
    bias_filler {
      type: "constant"
      value: 0
    }
  }
}
layer {
  name: "g_bn_6"
  type: "BatchNorm"
  bottom: "g_conv_6"
  top: "g_conv_6"
  batch_norm_param {
    use_global_stats: false
  }
}
layer {
  name: "g_scale_6"
  type: "Scale"
  bottom: "g_conv_6"
  top: "g_conv_6"
  scale_param {
    bias_term: true
  }
}
layer {
  name: "g_relu_6"
  type: "ReLU"
  bottom: "g_conv_6"
  top: "g_conv_6"
}
layer {
  name: "g_upsample_2"
  type: "Upsample"
  bottom: "g_conv_6"
  bottom: "g_pooling_2_mask"
  top: "g_upsample_2"
  upsample_param {
    scale: 2
  }
}
layer {
  name: "g_conv_7"
  type: "Convolution"
  bottom: "g_upsample_2"
  top: "g_conv_7"
  param {
    name: "g_conv_7_w"
    lr_mult: 1
    decay_mult: 1
    param_propagate_down: false
  }
  param {
    name: "g_conv_7_b"
    lr_mult: 2
    decay_mult: 0
    param_propagate_down: false
  }
  propagate_down: false
  convolution_param {
    num_output: 64
    pad: 1
    kernel_size: 3
    stride: 1
    weight_filler {
      type: "xavier"
    }
    bias_filler {
      type: "constant"
      value: 0
    }
  }
}
layer {
  name: "g_bn_7"
  type: "BatchNorm"
  bottom: "g_conv_7"
  top: "g_conv_7"
  batch_norm_param {
    use_global_stats: false
  }
}
layer {
  name: "g_scale_7"
  type: "Scale"
  bottom: "g_conv_7"
  top: "g_conv_7"
  scale_param {
    bias_term: true
  }
}
layer {
  name: "g_relu_7"
  type: "ReLU"
  bottom: "g_conv_7"
  top: "g_conv_7"
}
layer {
  name: "concat"
  type: "Concat"
  bottom: "gray_image"
  bottom: "g_conv_7"
  top: "concat"
  concat_param {
    axis: 1
  }
}
layer {
  name: "g_conv_8"
  type: "Convolution"
  bottom: "concat"
  top: "g_conv_8"
  param {
    name: "g_conv_8_w"
    lr_mult: 1
    decay_mult: 1
    param_propagate_down: false
  }
  param {
    name: "g_conv_8_b"
    lr_mult: 2
    decay_mult: 0
    param_propagate_down: false
  }
  propagate_down: false
  convolution_param {
    num_output: 32
    pad: 1
    kernel_size: 3
    stride: 1
    weight_filler {
      type: "xavier"
    }
    bias_filler {
      type: "constant"
      value: 0
    }
  }
}
layer {
  name: "g_relu_8"
  type: "ReLU"
  bottom: "g_conv_8"
  top: "g_conv_8"
}
layer {
  name: "g_conv_9"
  type: "Convolution"
  bottom: "g_conv_8"
  top: "g_conv_9"
  param {
    name: "g_conv_9_w"
    lr_mult: 1
    decay_mult: 1
    param_propagate_down: false
  }
  param {
    name: "g_conv_9_b"
    lr_mult: 2
    decay_mult: 0
    param_propagate_down: false
  }
  propagate_down: false
  convolution_param {
    num_output: 3
    pad: 1
    kernel_size: 3
    stride: 1
    weight_filler {
      type: "xavier"
    }
    bias_filler {
      type: "constant"
      value: 0
    }
  }
}
layer {
  name: "g_bn_9"
  type: "BatchNorm"
  bottom: "g_conv_9"
  top: "g_conv_9"
  include {
    phase: TRAIN
  }
  batch_norm_param {
    use_global_stats: false
  }
}
layer {
  name: "g_scale_9"
  type: "Scale"
  bottom: "g_conv_9"
  top: "g_conv_9"
  include {
    phase: TRAIN
  }
  scale_param {
    bias_term: true
  }
}
layer {
  name: "g_sigmoid_9"
  type: "ReLU"
  bottom: "g_conv_9"
  top: "g_conv_9"
  include {
    phase: TRAIN
  }
}
layer {
  name: "concat_2"
  type: "Concat"
  bottom: "color_image"
  bottom: "g_conv_9"
  top: "concat_2"
  include {
    phase: TRAIN
  }
  concat_param {
    axis: 0
  }
}
layer {
  name: "d_conv_1"
  type: "Convolution"
  bottom: "concat_2"
  top: "d_conv_1"
  param {
    name: "d_conv_1_w"
    lr_mult: 1
    decay_mult: 1
  }
  param {
    name: "d_conv_1_b"
    lr_mult: 2
    decay_mult: 0
  }
  include {
    phase: TRAIN
  }
  convolution_param {
    num_output: 64
    pad: 1
    kernel_size: 3
    stride: 1
    weight_filler {
      type: "xavier"
    }
    bias_filler {
      type: "constant"
      value: 0
    }
  }
}
layer {
  name: "d_relu_1"
  type: "ReLU"
  bottom: "d_conv_1"
  top: "d_conv_1"
  include {
    phase: TRAIN
  }
}
layer {
  name: "d_dropout_1"
  type: "Dropout"
  bottom: "d_conv_1"
  top: "d_conv_1"
  include {
    phase: TRAIN
  }
  dropout_param {
    dropout_ratio: 0.25
  }
}
layer {
  name: "d_pooling_1"
  type: "Pooling"
  bottom: "d_conv_1"
  top: "d_pooling_1"
  include {
    phase: TRAIN
  }
  pooling_param {
    pool: AVE
    kernel_size: 2
    stride: 2
  }
}
layer {
  name: "d_conv_2"
  type: "Convolution"
  bottom: "d_pooling_1"
  top: "d_conv_2"
  param {
    name: "d_conv_2_w"
    lr_mult: 1
    decay_mult: 1
  }
  param {
    name: "d_conv_2_b"
    lr_mult: 2
    decay_mult: 0
  }
  include {
    phase: TRAIN
  }
  convolution_param {
    num_output: 128
    pad: 1
    kernel_size: 3
    stride: 1
    weight_filler {
      type: "xavier"
    }
    bias_filler {
      type: "constant"
      value: 0
    }
  }
}
layer {
  name: "d_relu_2"
  type: "ReLU"
  bottom: "d_conv_2"
  top: "d_conv_2"
  include {
    phase: TRAIN
  }
}
layer {
  name: "d_dropout_2"
  type: "Dropout"
  bottom: "d_conv_2"
  top: "d_conv_2"
  include {
    phase: TRAIN
  }
  dropout_param {
    dropout_ratio: 0.25
  }
}
layer {
  name: "d_conv_3"
  type: "Convolution"
  bottom: "d_conv_2"
  top: "d_conv_3"
  param {
    name: "d_conv_3_w"
    lr_mult: 1
    decay_mult: 1
  }
  param {
    name: "d_conv_3_b"
    lr_mult: 2
    decay_mult: 0
  }
  include {
    phase: TRAIN
  }
  convolution_param {
    num_output: 256
    pad: 1
    kernel_size: 3
    stride: 1
    weight_filler {
      type: "xavier"
    }
    bias_filler {
      type: "constant"
      value: 0
    }
  }
}
layer {
  name: "d_relu_3"
  type: "ReLU"
  bottom: "d_conv_3"
  top: "d_conv_3"
  include {
    phase: TRAIN
  }
}
layer {
  name: "d_dropout_3"
  type: "Dropout"
  bottom: "d_conv_3"
  top: "d_conv_3"
  include {
    phase: TRAIN
  }
  dropout_param {
    dropout_ratio: 0.25
  }
}
layer {
  name: "d_pooling_3"
  type: "Pooling"
  bottom: "d_conv_3"
  top: "d_pooling_3"
  include {
    phase: TRAIN
  }
  pooling_param {
    pool: MAX
    kernel_size: 2
    stride: 2
  }
}
layer {
  name: "d_fc_4"
  type: "InnerProduct"
  bottom: "d_pooling_3"
  top: "d_fc_4"
  param {
    name: "d_fc_4_w"
    lr_mult: 1
    decay_mult: 1
  }
  param {
    name: "d_fc_4_b"
    lr_mult: 2
    decay_mult: 0
  }
  include {
    phase: TRAIN
  }
  inner_product_param {
    num_output: 128
    weight_filler {
      type: "xavier"
    }
    bias_filler {
      type: "constant"
      value: 0
    }
  }
}
layer {
  name: "d_prelu_4"
  type: "PReLU"
  bottom: "d_fc_4"
  top: "d_fc_4"
  include {
    phase: TRAIN
  }
}
layer {
  name: "d_dropout_4"
  type: "Dropout"
  bottom: "d_fc_4"
  top: "d_fc_4"
  include {
    phase: TRAIN
  }
  dropout_param {
    dropout_ratio: 0.5
  }
}
layer {
  name: "d_fc_5"
  type: "InnerProduct"
  bottom: "d_fc_4"
  top: "d_fc_5"
  param {
    name: "d_fc_5_w"
    lr_mult: 1
    decay_mult: 1
  }
  param {
    name: "d_fc_5_b"
    lr_mult: 2
    decay_mult: 0
  }
  include {
    phase: TRAIN
  }
  inner_product_param {
    num_output: 1
    weight_filler {
      type: "xavier"
    }
    bias_filler {
      type: "constant"
      value: 0
    }
  }
}
layer {
  name: "sigmoid_loss"
  type: "SigmoidCrossEntropyLoss"
  bottom: "d_fc_5"
  bottom: "label"
  top: "sigmoid_loss"
  include {
    phase: TRAIN
  }
}
layer {
  name: "g_conv_1_g"
  type: "Convolution"
  bottom: "gray_image"
  top: "g_conv_1_g"
  param {
    name: "g_conv_1_w"
    lr_mult: 1
    decay_mult: 1
  }
  param {
    name: "g_conv_1_b"
    lr_mult: 2
    decay_mult: 0
  }
  include {
    phase: TRAIN
  }
  convolution_param {
    num_output: 16
    pad: 1
    kernel_size: 3
    stride: 1
    weight_filler {
      type: "xavier"
    }
    bias_filler {
      type: "constant"
      value: 0
    }
  }
}
layer {
  name: "g_bn_1_g"
  type: "BatchNorm"
  bottom: "g_conv_1_g"
  top: "g_conv_1_g"
  include {
    phase: TRAIN
  }
  batch_norm_param {
    use_global_stats: false
  }
}
layer {
  name: "g_scale_1_g"
  type: "Scale"
  bottom: "g_conv_1_g"
  top: "g_conv_1_g"
  include {
    phase: TRAIN
  }
  scale_param {
    bias_term: true
  }
}
layer {
  name: "g_relu_1_g"
  type: "ReLU"
  bottom: "g_conv_1_g"
  top: "g_conv_1_g"
  include {
    phase: TRAIN
  }
}
layer {
  name: "g_conv_2_g"
  type: "Convolution"
  bottom: "g_conv_1_g"
  top: "g_conv_2_g"
  param {
    name: "g_conv_2_w"
    lr_mult: 1
    decay_mult: 1
  }
  param {
    name: "g_conv_2_b"
    lr_mult: 2
    decay_mult: 0
  }
  include {
    phase: TRAIN
  }
  convolution_param {
    num_output: 32
    pad: 1
    kernel_size: 3
    stride: 1
    weight_filler {
      type: "xavier"
    }
    bias_filler {
      type: "constant"
      value: 0
    }
  }
}
layer {
  name: "g_bn_2_g"
  type: "BatchNorm"
  bottom: "g_conv_2_g"
  top: "g_conv_2_g"
  include {
    phase: TRAIN
  }
  batch_norm_param {
    use_global_stats: false
  }
}
layer {
  name: "g_scale_2_g"
  type: "Scale"
  bottom: "g_conv_2_g"
  top: "g_conv_2_g"
  include {
    phase: TRAIN
  }
  scale_param {
    bias_term: true
  }
}
layer {
  name: "g_relu_2_g"
  type: "ReLU"
  bottom: "g_conv_2_g"
  top: "g_conv_2_g"
  include {
    phase: TRAIN
  }
}
layer {
  name: "g_pooling_2_g"
  type: "Pooling"
  bottom: "g_conv_2_g"
  top: "g_pooling_2_g"
  top: "g_pooling_2_mask_g"
  include {
    phase: TRAIN
  }
  pooling_param {
    pool: MAX
    kernel_size: 2
    stride: 2
  }
}
layer {
  name: "g_conv_3_g"
  type: "Convolution"
  bottom: "g_pooling_2_g"
  top: "g_conv_3_g"
  param {
    name: "g_conv_3_w"
    lr_mult: 1
    decay_mult: 1
  }
  param {
    name: "g_conv_3_b"
    lr_mult: 2
    decay_mult: 0
  }
  include {
    phase: TRAIN
  }
  convolution_param {
    num_output: 64
    pad: 1
    kernel_size: 3
    stride: 1
    weight_filler {
      type: "xavier"
    }
    bias_filler {
      type: "constant"
      value: 0
    }
  }
}
layer {
  name: "g_bn_3_g"
  type: "BatchNorm"
  bottom: "g_conv_3_g"
  top: "g_conv_3_g"
  include {
    phase: TRAIN
  }
  batch_norm_param {
    use_global_stats: false
  }
}
layer {
  name: "g_scale_3_g"
  type: "Scale"
  bottom: "g_conv_3_g"
  top: "g_conv_3_g"
  include {
    phase: TRAIN
  }
  scale_param {
    bias_term: true
  }
}
layer {
  name: "g_relu_3_g"
  type: "ReLU"
  bottom: "g_conv_3_g"
  top: "g_conv_3_g"
  include {
    phase: TRAIN
  }
}
layer {
  name: "g_pooling_3_g"
  type: "Pooling"
  bottom: "g_conv_3_g"
  top: "g_pooling_3_g"
  top: "g_pooling_3_mask_g"
  include {
    phase: TRAIN
  }
  pooling_param {
    pool: MAX
    kernel_size: 2
    stride: 2
  }
}
layer {
  name: "g_conv_4_g"
  type: "Convolution"
  bottom: "g_pooling_3_g"
  top: "g_conv_4_g"
  param {
    name: "g_conv_4_w"
    lr_mult: 1
    decay_mult: 1
  }
  param {
    name: "g_conv_4_b"
    lr_mult: 2
    decay_mult: 0
  }
  include {
    phase: TRAIN
  }
  convolution_param {
    num_output: 128
    pad: 1
    kernel_size: 3
    stride: 1
    weight_filler {
      type: "xavier"
    }
    bias_filler {
      type: "constant"
      value: 0
    }
  }
}
layer {
  name: "g_bn_4_g"
  type: "BatchNorm"
  bottom: "g_conv_4_g"
  top: "g_conv_4_g"
  include {
    phase: TRAIN
  }
  batch_norm_param {
    use_global_stats: false
  }
}
layer {
  name: "g_scale_4_g"
  type: "Scale"
  bottom: "g_conv_4_g"
  top: "g_conv_4_g"
  include {
    phase: TRAIN
  }
  scale_param {
    bias_term: true
  }
}
layer {
  name: "g_relu_4_g"
  type: "ReLU"
  bottom: "g_conv_4_g"
  top: "g_conv_4_g"
  include {
    phase: TRAIN
  }
}
layer {
  name: "g_conv_5_g"
  type: "Convolution"
  bottom: "g_conv_4_g"
  top: "g_conv_5_g"
  param {
    name: "g_conv_5_w"
    lr_mult: 1
    decay_mult: 1
  }
  param {
    name: "g_conv_5_b"
    lr_mult: 2
    decay_mult: 0
  }
  include {
    phase: TRAIN
  }
  convolution_param {
    num_output: 64
    pad: 1
    kernel_size: 3
    stride: 1
    weight_filler {
      type: "xavier"
    }
    bias_filler {
      type: "constant"
      value: 0
    }
  }
}
layer {
  name: "g_bn_5_g"
  type: "BatchNorm"
  bottom: "g_conv_5_g"
  top: "g_conv_5_g"
  include {
    phase: TRAIN
  }
  batch_norm_param {
    use_global_stats: false
  }
}
layer {
  name: "g_scale_5_g"
  type: "Scale"
  bottom: "g_conv_5_g"
  top: "g_conv_5_g"
  include {
    phase: TRAIN
  }
  scale_param {
    bias_term: true
  }
}
layer {
  name: "g_relu_5_g"
  type: "ReLU"
  bottom: "g_conv_5_g"
  top: "g_conv_5_g"
  include {
    phase: TRAIN
  }
}
layer {
  name: "g_upsample_1_g"
  type: "Upsample"
  bottom: "g_conv_5_g"
  bottom: "g_pooling_3_mask_g"
  top: "g_upsample_1_g"
  include {
    phase: TRAIN
  }
  upsample_param {
    scale: 2
  }
}
layer {
  name: "g_conv_6_g"
  type: "Convolution"
  bottom: "g_upsample_1_g"
  top: "g_conv_6_g"
  param {
    name: "g_conv_6_w"
    lr_mult: 1
    decay_mult: 1
  }
  param {
    name: "g_conv_6_b"
    lr_mult: 2
    decay_mult: 0
  }
  include {
    phase: TRAIN
  }
  convolution_param {
    num_output: 32
    pad: 1
    kernel_size: 3
    stride: 1
    weight_filler {
      type: "xavier"
    }
    bias_filler {
      type: "constant"
      value: 0
    }
  }
}
layer {
  name: "g_bn_6_g"
  type: "BatchNorm"
  bottom: "g_conv_6_g"
  top: "g_conv_6_g"
  include {
    phase: TRAIN
  }
  batch_norm_param {
    use_global_stats: false
  }
}
layer {
  name: "g_scale_6_g"
  type: "Scale"
  bottom: "g_conv_6_g"
  top: "g_conv_6_g"
  include {
    phase: TRAIN
  }
  scale_param {
    bias_term: true
  }
}
layer {
  name: "g_relu_6_g"
  type: "ReLU"
  bottom: "g_conv_6_g"
  top: "g_conv_6_g"
  include {
    phase: TRAIN
  }
}
layer {
  name: "g_upsample_2_g"
  type: "Upsample"
  bottom: "g_conv_6_g"
  bottom: "g_pooling_2_mask_g"
  top: "g_upsample_2_g"
  include {
    phase: TRAIN
  }
  upsample_param {
    scale: 2
  }
}
layer {
  name: "g_conv_7_g"
  type: "Convolution"
  bottom: "g_upsample_2_g"
  top: "g_conv_7_g"
  param {
    name: "g_conv_7_w"
    lr_mult: 1
    decay_mult: 1
  }
  param {
    name: "g_conv_7_b"
    lr_mult: 2
    decay_mult: 0
  }
  include {
    phase: TRAIN
  }
  convolution_param {
    num_output: 64
    pad: 1
    kernel_size: 3
    stride: 1
    weight_filler {
      type: "xavier"
    }
    bias_filler {
      type: "constant"
      value: 0
    }
  }
}
layer {
  name: "g_bn_7_g"
  type: "BatchNorm"
  bottom: "g_conv_7_g"
  top: "g_conv_7_g"
  include {
    phase: TRAIN
  }
  batch_norm_param {
    use_global_stats: false
  }
}
layer {
  name: "g_scale_7_g"
  type: "Scale"
  bottom: "g_conv_7_g"
  top: "g_conv_7_g"
  include {
    phase: TRAIN
  }
  scale_param {
    bias_term: true
  }
}
layer {
  name: "g_relu_7_g"
  type: "ReLU"
  bottom: "g_conv_7_g"
  top: "g_conv_7_g"
  include {
    phase: TRAIN
  }
}
layer {
  name: "concat_g"
  type: "Concat"
  bottom: "gray_image"
  bottom: "g_conv_7_g"
  top: "concat_g"
  include {
    phase: TRAIN
  }
  concat_param {
    axis: 1
  }
}
layer {
  name: "g_conv_8_g"
  type: "Convolution"
  bottom: "concat_g"
  top: "g_conv_8_g"
  param {
    name: "g_conv_8_w"
    lr_mult: 1
    decay_mult: 1
  }
  param {
    name: "g_conv_8_b"
    lr_mult: 2
    decay_mult: 0
  }
  include {
    phase: TRAIN
  }
  convolution_param {
    num_output: 32
    pad: 1
    kernel_size: 3
    stride: 1
    weight_filler {
      type: "xavier"
    }
    bias_filler {
      type: "constant"
      value: 0
    }
  }
}
layer {
  name: "g_relu_8_g"
  type: "ReLU"
  bottom: "g_conv_8_g"
  top: "g_conv_8_g"
  include {
    phase: TRAIN
  }
}
layer {
  name: "g_conv_9_g"
  type: "Convolution"
  bottom: "g_conv_8_g"
  top: "g_conv_9_g"
  param {
    name: "g_conv_9_w"
    lr_mult: 1
    decay_mult: 1
  }
  param {
    name: "g_conv_9_b"
    lr_mult: 2
    decay_mult: 0
  }
  include {
    phase: TRAIN
  }
  convolution_param {
    num_output: 3
    pad: 1
    kernel_size: 3
    stride: 1
    weight_filler {
      type: "xavier"
    }
    bias_filler {
      type: "constant"
      value: 0
    }
  }
}
layer {
  name: "g_bn_9_g"
  type: "BatchNorm"
  bottom: "g_conv_9_g"
  top: "g_conv_9_g"
  include {
    phase: TRAIN
  }
  batch_norm_param {
    use_global_stats: false
  }
}
layer {
  name: "g_scale_9_g"
  type: "Scale"
  bottom: "g_conv_9_g"
  top: "g_conv_9_g"
  include {
    phase: TRAIN
  }
  scale_param {
    bias_term: true
  }
}
layer {
  name: "g_sigmoid_9_g"
  type: "ReLU"
  bottom: "g_conv_9_g"
  top: "g_conv_9_g"
  include {
    phase: TRAIN
  }
}
layer {
  name: "concat_2_g"
  type: "Concat"
  bottom: "color_image"
  bottom: "g_conv_9_g"
  top: "concat_2_g"
  include {
    phase: TRAIN
  }
  concat_param {
    axis: 0
  }
}
layer {
  name: "d_conv_1_g"
  type: "Convolution"
  bottom: "concat_2_g"
  top: "d_conv_1_g"
  param {
    name: "d_conv_1_w"
    lr_mult: 1
    decay_mult: 1
    param_propagate_down: false
  }
  param {
    name: "d_conv_1_b"
    lr_mult: 2
    decay_mult: 0
    param_propagate_down: false
  }
  include {
    phase: TRAIN
  }
  convolution_param {
    num_output: 64
    pad: 1
    kernel_size: 3
    stride: 1
    weight_filler {
      type: "xavier"
    }
    bias_filler {
      type: "constant"
      value: 0
    }
  }
}
layer {
  name: "d_relu_1_g"
  type: "ReLU"
  bottom: "d_conv_1_g"
  top: "d_conv_1_g"
  include {
    phase: TRAIN
  }
}
layer {
  name: "d_dropout_1_g"
  type: "Dropout"
  bottom: "d_conv_1_g"
  top: "d_conv_1_g"
  include {
    phase: TRAIN
  }
  dropout_param {
    dropout_ratio: 0.25
  }
}
layer {
  name: "d_pooling_1_g"
  type: "Pooling"
  bottom: "d_conv_1_g"
  top: "d_pooling_1_g"
  include {
    phase: TRAIN
  }
  pooling_param {
    pool: AVE
    kernel_size: 2
    stride: 2
  }
}
layer {
  name: "d_conv_2_g"
  type: "Convolution"
  bottom: "d_pooling_1_g"
  top: "d_conv_2_g"
  param {
    name: "d_conv_2_w"
    lr_mult: 1
    decay_mult: 1
    param_propagate_down: false
  }
  param {
    name: "d_conv_2_b"
    lr_mult: 2
    decay_mult: 0
    param_propagate_down: false
  }
  include {
    phase: TRAIN
  }
  convolution_param {
    num_output: 128
    pad: 1
    kernel_size: 3
    stride: 1
    weight_filler {
      type: "xavier"
    }
    bias_filler {
      type: "constant"
      value: 0
    }
  }
}
layer {
  name: "d_relu_2_g"
  type: "ReLU"
  bottom: "d_conv_2_g"
  top: "d_conv_2_g"
  include {
    phase: TRAIN
  }
}
layer {
  name: "d_dropout_2_g"
  type: "Dropout"
  bottom: "d_conv_2_g"
  top: "d_conv_2_g"
  include {
    phase: TRAIN
  }
  dropout_param {
    dropout_ratio: 0.25
  }
}
layer {
  name: "d_conv_3_g"
  type: "Convolution"
  bottom: "d_conv_2_g"
  top: "d_conv_3_g"
  param {
    name: "d_conv_3_w"
    lr_mult: 1
    decay_mult: 1
    param_propagate_down: false
  }
  param {
    name: "d_conv_3_b"
    lr_mult: 2
    decay_mult: 0
    param_propagate_down: false
  }
  include {
    phase: TRAIN
  }
  convolution_param {
    num_output: 256
    pad: 1
    kernel_size: 3
    stride: 1
    weight_filler {
      type: "xavier"
    }
    bias_filler {
      type: "constant"
      value: 0
    }
  }
}
layer {
  name: "d_relu_3_g"
  type: "ReLU"
  bottom: "d_conv_3_g"
  top: "d_conv_3_g"
  include {
    phase: TRAIN
  }
}
layer {
  name: "d_dropout_3_g"
  type: "Dropout"
  bottom: "d_conv_3_g"
  top: "d_conv_3_g"
  include {
    phase: TRAIN
  }
  dropout_param {
    dropout_ratio: 0.25
  }
}
layer {
  name: "d_pooling_3_g"
  type: "Pooling"
  bottom: "d_conv_3_g"
  top: "d_pooling_3_g"
  include {
    phase: TRAIN
  }
  pooling_param {
    pool: MAX
    kernel_size: 2
    stride: 2
  }
}
layer {
  name: "d_fc_4_g"
  type: "InnerProduct"
  bottom: "d_pooling_3_g"
  top: "d_fc_4_g"
  param {
    name: "d_fc_4_w"
    lr_mult: 1
    decay_mult: 1
    param_propagate_down: false
  }
  param {
    name: "d_fc_4_b"
    lr_mult: 2
    decay_mult: 0
    param_propagate_down: false
  }
  include {
    phase: TRAIN
  }
  inner_product_param {
    num_output: 128
    weight_filler {
      type: "xavier"
    }
    bias_filler {
      type: "constant"
      value: 0
    }
  }
}
layer {
  name: "d_prelu_4_g"
  type: "PReLU"
  bottom: "d_fc_4_g"
  top: "d_fc_4_g"
  include {
    phase: TRAIN
  }
}
layer {
  name: "d_dropout_4_g"
  type: "Dropout"
  bottom: "d_fc_4_g"
  top: "d_fc_4_g"
  include {
    phase: TRAIN
  }
  dropout_param {
    dropout_ratio: 0.5
  }
}
layer {
  name: "d_fc_5_g"
  type: "InnerProduct"
  bottom: "d_fc_4_g"
  top: "d_fc_5_g"
  param {
    name: "d_fc_5_w"
    lr_mult: 1
    decay_mult: 1
    param_propagate_down: false
  }
  param {
    name: "d_fc_5_b"
    lr_mult: 2
    decay_mult: 0
    param_propagate_down: false
  }
  include {
    phase: TRAIN
  }
  inner_product_param {
    num_output: 1
    weight_filler {
      type: "xavier"
    }
    bias_filler {
      type: "constant"
      value: 0
    }
  }
}
layer {
  name: "sigmoid_loss_g"
  type: "SigmoidCrossEntropyLoss"
  bottom: "d_fc_5_g"
  bottom: "label_g"
  top: "sigmoid_loss_g"
  include {
    phase: TRAIN
  }
  loss_param {
    ignore_label: 0
  }
}
I1217 21:22:06.521109 30861 layer_factory.hpp:77] Creating layer input_data
I1217 21:22:07.380597 30861 net.cpp:107] Creating Layer input_data
I1217 21:22:07.380643 30861 net.cpp:419] input_data -> gray_image
I1217 21:22:07.380669 30861 net.cpp:419] input_data -> color_image
I1217 21:22:07.380686 30861 net.cpp:419] input_data -> label
I1217 21:22:07.380697 30861 net.cpp:419] input_data -> label_g
I1217 21:22:07.415585 30861 net.cpp:157] Setting up input_data
I1217 21:22:07.415626 30861 net.cpp:164] Top shape: 1 2 64 64 (8192)
I1217 21:22:07.415634 30861 net.cpp:164] Top shape: 1 3 64 64 (12288)
I1217 21:22:07.415642 30861 net.cpp:164] Top shape: 2 1 (2)
I1217 21:22:07.415648 30861 net.cpp:164] Top shape: 2 1 (2)
I1217 21:22:07.415653 30861 net.cpp:172] Memory required for data: 81936
I1217 21:22:07.415666 30861 layer_factory.hpp:77] Creating layer gray_image_input_data_0_split
I1217 21:22:07.415683 30861 net.cpp:107] Creating Layer gray_image_input_data_0_split
I1217 21:22:07.415693 30861 net.cpp:445] gray_image_input_data_0_split <- gray_image
I1217 21:22:07.415709 30861 net.cpp:419] gray_image_input_data_0_split -> gray_image_input_data_0_split_0
I1217 21:22:07.415724 30861 net.cpp:419] gray_image_input_data_0_split -> gray_image_input_data_0_split_1
I1217 21:22:07.415735 30861 net.cpp:419] gray_image_input_data_0_split -> gray_image_input_data_0_split_2
I1217 21:22:07.415745 30861 net.cpp:419] gray_image_input_data_0_split -> gray_image_input_data_0_split_3
I1217 21:22:07.415768 30861 net.cpp:157] Setting up gray_image_input_data_0_split
I1217 21:22:07.415796 30861 net.cpp:164] Top shape: 1 2 64 64 (8192)
I1217 21:22:07.415808 30861 net.cpp:164] Top shape: 1 2 64 64 (8192)
I1217 21:22:07.415819 30861 net.cpp:164] Top shape: 1 2 64 64 (8192)
I1217 21:22:07.415832 30861 net.cpp:164] Top shape: 1 2 64 64 (8192)
I1217 21:22:07.415838 30861 net.cpp:172] Memory required for data: 213008
I1217 21:22:07.415844 30861 layer_factory.hpp:77] Creating layer color_image_input_data_1_split
I1217 21:22:07.415854 30861 net.cpp:107] Creating Layer color_image_input_data_1_split
I1217 21:22:07.415860 30861 net.cpp:445] color_image_input_data_1_split <- color_image
I1217 21:22:07.415869 30861 net.cpp:419] color_image_input_data_1_split -> color_image_input_data_1_split_0
I1217 21:22:07.415881 30861 net.cpp:419] color_image_input_data_1_split -> color_image_input_data_1_split_1
I1217 21:22:07.415892 30861 net.cpp:157] Setting up color_image_input_data_1_split
I1217 21:22:07.415901 30861 net.cpp:164] Top shape: 1 3 64 64 (12288)
I1217 21:22:07.415909 30861 net.cpp:164] Top shape: 1 3 64 64 (12288)
I1217 21:22:07.415913 30861 net.cpp:172] Memory required for data: 311312
I1217 21:22:07.415920 30861 layer_factory.hpp:77] Creating layer g_conv_1
I1217 21:22:07.415940 30861 net.cpp:107] Creating Layer g_conv_1
I1217 21:22:07.415946 30861 net.cpp:445] g_conv_1 <- gray_image_input_data_0_split_0
I1217 21:22:07.415956 30861 net.cpp:419] g_conv_1 -> g_conv_1
I1217 21:22:07.416302 30861 net.cpp:157] Setting up g_conv_1
I1217 21:22:07.416314 30861 net.cpp:164] Top shape: 1 16 64 64 (65536)
I1217 21:22:07.416321 30861 net.cpp:172] Memory required for data: 573456
I1217 21:22:07.416333 30861 layer_factory.hpp:77] Creating layer g_bn_1
I1217 21:22:07.416345 30861 net.cpp:107] Creating Layer g_bn_1
I1217 21:22:07.416352 30861 net.cpp:445] g_bn_1 <- g_conv_1
I1217 21:22:07.416360 30861 net.cpp:406] g_bn_1 -> g_conv_1 (in-place)
I1217 21:22:07.416383 30861 net.cpp:157] Setting up g_bn_1
I1217 21:22:07.416391 30861 net.cpp:164] Top shape: 1 16 64 64 (65536)
I1217 21:22:07.416398 30861 net.cpp:172] Memory required for data: 835600
I1217 21:22:07.416414 30861 layer_factory.hpp:77] Creating layer g_scale_1
I1217 21:22:07.416424 30861 net.cpp:107] Creating Layer g_scale_1
I1217 21:22:07.416429 30861 net.cpp:445] g_scale_1 <- g_conv_1
I1217 21:22:07.416437 30861 net.cpp:406] g_scale_1 -> g_conv_1 (in-place)
I1217 21:22:07.416455 30861 layer_factory.hpp:77] Creating layer g_scale_1
I1217 21:22:07.416483 30861 net.cpp:157] Setting up g_scale_1
I1217 21:22:07.416492 30861 net.cpp:164] Top shape: 1 16 64 64 (65536)
I1217 21:22:07.416498 30861 net.cpp:172] Memory required for data: 1097744
I1217 21:22:07.416507 30861 layer_factory.hpp:77] Creating layer g_relu_1
I1217 21:22:07.416515 30861 net.cpp:107] Creating Layer g_relu_1
I1217 21:22:07.416522 30861 net.cpp:445] g_relu_1 <- g_conv_1
I1217 21:22:07.416528 30861 net.cpp:406] g_relu_1 -> g_conv_1 (in-place)
I1217 21:22:07.416541 30861 net.cpp:157] Setting up g_relu_1
I1217 21:22:07.416548 30861 net.cpp:164] Top shape: 1 16 64 64 (65536)
I1217 21:22:07.416554 30861 net.cpp:172] Memory required for data: 1359888
I1217 21:22:07.416559 30861 layer_factory.hpp:77] Creating layer g_conv_2
I1217 21:22:07.416570 30861 net.cpp:107] Creating Layer g_conv_2
I1217 21:22:07.416577 30861 net.cpp:445] g_conv_2 <- g_conv_1
I1217 21:22:07.416585 30861 net.cpp:419] g_conv_2 -> g_conv_2
I1217 21:22:07.416643 30861 net.cpp:157] Setting up g_conv_2
I1217 21:22:07.416653 30861 net.cpp:164] Top shape: 1 32 64 64 (131072)
I1217 21:22:07.416658 30861 net.cpp:172] Memory required for data: 1884176
I1217 21:22:07.416668 30861 layer_factory.hpp:77] Creating layer g_bn_2
I1217 21:22:07.416678 30861 net.cpp:107] Creating Layer g_bn_2
I1217 21:22:07.416684 30861 net.cpp:445] g_bn_2 <- g_conv_2
I1217 21:22:07.416692 30861 net.cpp:406] g_bn_2 -> g_conv_2 (in-place)
I1217 21:22:07.416708 30861 net.cpp:157] Setting up g_bn_2
I1217 21:22:07.416716 30861 net.cpp:164] Top shape: 1 32 64 64 (131072)
I1217 21:22:07.416726 30861 net.cpp:172] Memory required for data: 2408464
I1217 21:22:07.416752 30861 layer_factory.hpp:77] Creating layer g_scale_2
I1217 21:22:07.416762 30861 net.cpp:107] Creating Layer g_scale_2
I1217 21:22:07.416769 30861 net.cpp:445] g_scale_2 <- g_conv_2
I1217 21:22:07.416776 30861 net.cpp:406] g_scale_2 -> g_conv_2 (in-place)
I1217 21:22:07.416788 30861 layer_factory.hpp:77] Creating layer g_scale_2
I1217 21:22:07.416810 30861 net.cpp:157] Setting up g_scale_2
I1217 21:22:07.416817 30861 net.cpp:164] Top shape: 1 32 64 64 (131072)
I1217 21:22:07.416822 30861 net.cpp:172] Memory required for data: 2932752
I1217 21:22:07.416831 30861 layer_factory.hpp:77] Creating layer g_relu_2
I1217 21:22:07.416838 30861 net.cpp:107] Creating Layer g_relu_2
I1217 21:22:07.416844 30861 net.cpp:445] g_relu_2 <- g_conv_2
I1217 21:22:07.416851 30861 net.cpp:406] g_relu_2 -> g_conv_2 (in-place)
I1217 21:22:07.416860 30861 net.cpp:157] Setting up g_relu_2
I1217 21:22:07.416867 30861 net.cpp:164] Top shape: 1 32 64 64 (131072)
I1217 21:22:07.416872 30861 net.cpp:172] Memory required for data: 3457040
I1217 21:22:07.416878 30861 layer_factory.hpp:77] Creating layer g_pooling_2
I1217 21:22:07.416887 30861 net.cpp:107] Creating Layer g_pooling_2
I1217 21:22:07.416893 30861 net.cpp:445] g_pooling_2 <- g_conv_2
I1217 21:22:07.416900 30861 net.cpp:419] g_pooling_2 -> g_pooling_2
I1217 21:22:07.416913 30861 net.cpp:419] g_pooling_2 -> g_pooling_2_mask
I1217 21:22:07.416929 30861 net.cpp:157] Setting up g_pooling_2
I1217 21:22:07.416937 30861 net.cpp:164] Top shape: 1 32 32 32 (32768)
I1217 21:22:07.416944 30861 net.cpp:164] Top shape: 1 32 32 32 (32768)
I1217 21:22:07.416949 30861 net.cpp:172] Memory required for data: 3719184
I1217 21:22:07.416955 30861 layer_factory.hpp:77] Creating layer g_conv_3
I1217 21:22:07.416966 30861 net.cpp:107] Creating Layer g_conv_3
I1217 21:22:07.416975 30861 net.cpp:445] g_conv_3 <- g_pooling_2
I1217 21:22:07.416985 30861 net.cpp:419] g_conv_3 -> g_conv_3
I1217 21:22:07.417140 30861 net.cpp:157] Setting up g_conv_3
I1217 21:22:07.417150 30861 net.cpp:164] Top shape: 1 64 32 32 (65536)
I1217 21:22:07.417155 30861 net.cpp:172] Memory required for data: 3981328
I1217 21:22:07.417163 30861 layer_factory.hpp:77] Creating layer g_bn_
I1217 21:22:07.417173 30861 net.cpp:107] Creating Layer g_bn_
I1217 21:22:07.417179 30861 net.cpp:445] g_bn_ <- g_conv_3
I1217 21:22:07.417187 30861 net.cpp:406] g_bn_ -> g_conv_3 (in-place)
I1217 21:22:07.417204 30861 net.cpp:157] Setting up g_bn_
I1217 21:22:07.417212 30861 net.cpp:164] Top shape: 1 64 32 32 (65536)
I1217 21:22:07.417217 30861 net.cpp:172] Memory required for data: 4243472
I1217 21:22:07.417230 30861 layer_factory.hpp:77] Creating layer g_scale_3
I1217 21:22:07.417239 30861 net.cpp:107] Creating Layer g_scale_3
I1217 21:22:07.417245 30861 net.cpp:445] g_scale_3 <- g_conv_3
I1217 21:22:07.417254 30861 net.cpp:406] g_scale_3 -> g_conv_3 (in-place)
I1217 21:22:07.417266 30861 layer_factory.hpp:77] Creating layer g_scale_3
I1217 21:22:07.417309 30861 net.cpp:157] Setting up g_scale_3
I1217 21:22:07.417320 30861 net.cpp:164] Top shape: 1 64 32 32 (65536)
I1217 21:22:07.417325 30861 net.cpp:172] Memory required for data: 4505616
I1217 21:22:07.417345 30861 layer_factory.hpp:77] Creating layer g_relu_3
I1217 21:22:07.417354 30861 net.cpp:107] Creating Layer g_relu_3
I1217 21:22:07.417361 30861 net.cpp:445] g_relu_3 <- g_conv_3
I1217 21:22:07.417368 30861 net.cpp:406] g_relu_3 -> g_conv_3 (in-place)
I1217 21:22:07.417376 30861 net.cpp:157] Setting up g_relu_3
I1217 21:22:07.417383 30861 net.cpp:164] Top shape: 1 64 32 32 (65536)
I1217 21:22:07.417389 30861 net.cpp:172] Memory required for data: 4767760
I1217 21:22:07.417394 30861 layer_factory.hpp:77] Creating layer g_pooling_3
I1217 21:22:07.417407 30861 net.cpp:107] Creating Layer g_pooling_3
I1217 21:22:07.417412 30861 net.cpp:445] g_pooling_3 <- g_conv_3
I1217 21:22:07.417420 30861 net.cpp:419] g_pooling_3 -> g_pooling_3
I1217 21:22:07.417430 30861 net.cpp:419] g_pooling_3 -> g_pooling_3_mask
I1217 21:22:07.417448 30861 net.cpp:157] Setting up g_pooling_3
I1217 21:22:07.417462 30861 net.cpp:164] Top shape: 1 64 16 16 (16384)
I1217 21:22:07.417470 30861 net.cpp:164] Top shape: 1 64 16 16 (16384)
I1217 21:22:07.417476 30861 net.cpp:172] Memory required for data: 4898832
I1217 21:22:07.417481 30861 layer_factory.hpp:77] Creating layer g_conv_4
I1217 21:22:07.417495 30861 net.cpp:107] Creating Layer g_conv_4
I1217 21:22:07.417501 30861 net.cpp:445] g_conv_4 <- g_pooling_3
I1217 21:22:07.417510 30861 net.cpp:419] g_conv_4 -> g_conv_4
I1217 21:22:07.418076 30861 net.cpp:157] Setting up g_conv_4
I1217 21:22:07.418088 30861 net.cpp:164] Top shape: 1 128 16 16 (32768)
I1217 21:22:07.418093 30861 net.cpp:172] Memory required for data: 5029904
I1217 21:22:07.418102 30861 layer_factory.hpp:77] Creating layer g_bn_4
I1217 21:22:07.418110 30861 net.cpp:107] Creating Layer g_bn_4
I1217 21:22:07.418117 30861 net.cpp:445] g_bn_4 <- g_conv_4
I1217 21:22:07.418125 30861 net.cpp:406] g_bn_4 -> g_conv_4 (in-place)
I1217 21:22:07.418153 30861 net.cpp:157] Setting up g_bn_4
I1217 21:22:07.418161 30861 net.cpp:164] Top shape: 1 128 16 16 (32768)
I1217 21:22:07.418167 30861 net.cpp:172] Memory required for data: 5160976
I1217 21:22:07.418180 30861 layer_factory.hpp:77] Creating layer g_scale_4
I1217 21:22:07.418200 30861 net.cpp:107] Creating Layer g_scale_4
I1217 21:22:07.418208 30861 net.cpp:445] g_scale_4 <- g_conv_4
I1217 21:22:07.418217 30861 net.cpp:406] g_scale_4 -> g_conv_4 (in-place)
I1217 21:22:07.418241 30861 layer_factory.hpp:77] Creating layer g_scale_4
I1217 21:22:07.418285 30861 net.cpp:157] Setting up g_scale_4
I1217 21:22:07.418303 30861 net.cpp:164] Top shape: 1 128 16 16 (32768)
I1217 21:22:07.418316 30861 net.cpp:172] Memory required for data: 5292048
I1217 21:22:07.418334 30861 layer_factory.hpp:77] Creating layer g_relu_4
I1217 21:22:07.418344 30861 net.cpp:107] Creating Layer g_relu_4
I1217 21:22:07.418351 30861 net.cpp:445] g_relu_4 <- g_conv_4
I1217 21:22:07.418359 30861 net.cpp:406] g_relu_4 -> g_conv_4 (in-place)
I1217 21:22:07.418368 30861 net.cpp:157] Setting up g_relu_4
I1217 21:22:07.418376 30861 net.cpp:164] Top shape: 1 128 16 16 (32768)
I1217 21:22:07.418382 30861 net.cpp:172] Memory required for data: 5423120
I1217 21:22:07.418388 30861 layer_factory.hpp:77] Creating layer g_conv_5
I1217 21:22:07.418401 30861 net.cpp:107] Creating Layer g_conv_5
I1217 21:22:07.418408 30861 net.cpp:445] g_conv_5 <- g_conv_4
I1217 21:22:07.418419 30861 net.cpp:419] g_conv_5 -> g_conv_5
I1217 21:22:07.419025 30861 net.cpp:157] Setting up g_conv_5
I1217 21:22:07.419037 30861 net.cpp:164] Top shape: 1 64 16 16 (16384)
I1217 21:22:07.419044 30861 net.cpp:172] Memory required for data: 5488656
I1217 21:22:07.419051 30861 layer_factory.hpp:77] Creating layer g_bn_5
I1217 21:22:07.419062 30861 net.cpp:107] Creating Layer g_bn_5
I1217 21:22:07.419070 30861 net.cpp:445] g_bn_5 <- g_conv_5
I1217 21:22:07.419077 30861 net.cpp:406] g_bn_5 -> g_conv_5 (in-place)
I1217 21:22:07.419095 30861 net.cpp:157] Setting up g_bn_5
I1217 21:22:07.419104 30861 net.cpp:164] Top shape: 1 64 16 16 (16384)
I1217 21:22:07.419111 30861 net.cpp:172] Memory required for data: 5554192
I1217 21:22:07.419126 30861 layer_factory.hpp:77] Creating layer g_scale_5
I1217 21:22:07.419136 30861 net.cpp:107] Creating Layer g_scale_5
I1217 21:22:07.419142 30861 net.cpp:445] g_scale_5 <- g_conv_5
I1217 21:22:07.419152 30861 net.cpp:406] g_scale_5 -> g_conv_5 (in-place)
I1217 21:22:07.419165 30861 layer_factory.hpp:77] Creating layer g_scale_5
I1217 21:22:07.419185 30861 net.cpp:157] Setting up g_scale_5
I1217 21:22:07.419194 30861 net.cpp:164] Top shape: 1 64 16 16 (16384)
I1217 21:22:07.419200 30861 net.cpp:172] Memory required for data: 5619728
I1217 21:22:07.419209 30861 layer_factory.hpp:77] Creating layer g_relu_5
I1217 21:22:07.419217 30861 net.cpp:107] Creating Layer g_relu_5
I1217 21:22:07.419224 30861 net.cpp:445] g_relu_5 <- g_conv_5
I1217 21:22:07.419232 30861 net.cpp:406] g_relu_5 -> g_conv_5 (in-place)
I1217 21:22:07.419242 30861 net.cpp:157] Setting up g_relu_5
I1217 21:22:07.419256 30861 net.cpp:164] Top shape: 1 64 16 16 (16384)
I1217 21:22:07.419270 30861 net.cpp:172] Memory required for data: 5685264
I1217 21:22:07.419275 30861 layer_factory.hpp:77] Creating layer g_upsample_1
I1217 21:22:07.419286 30861 net.cpp:107] Creating Layer g_upsample_1
I1217 21:22:07.419291 30861 net.cpp:445] g_upsample_1 <- g_conv_5
I1217 21:22:07.419299 30861 net.cpp:445] g_upsample_1 <- g_pooling_3_mask
I1217 21:22:07.419308 30861 net.cpp:419] g_upsample_1 -> g_upsample_1
I1217 21:22:07.419322 30861 upsample_layer.cpp:31] Params 'pad_out_{}_' are deprecated. Please declare upsample height and width useing the upsample_h, upsample_w parameters.
I1217 21:22:07.419330 30861 net.cpp:157] Setting up g_upsample_1
I1217 21:22:07.419338 30861 net.cpp:164] Top shape: 1 64 32 32 (65536)
I1217 21:22:07.419344 30861 net.cpp:172] Memory required for data: 5947408
I1217 21:22:07.419350 30861 layer_factory.hpp:77] Creating layer g_conv_6
I1217 21:22:07.419366 30861 net.cpp:107] Creating Layer g_conv_6
I1217 21:22:07.419374 30861 net.cpp:445] g_conv_6 <- g_upsample_1
I1217 21:22:07.419384 30861 net.cpp:419] g_conv_6 -> g_conv_6
I1217 21:22:07.419554 30861 net.cpp:157] Setting up g_conv_6
I1217 21:22:07.419565 30861 net.cpp:164] Top shape: 1 32 32 32 (32768)
I1217 21:22:07.419571 30861 net.cpp:172] Memory required for data: 6078480
I1217 21:22:07.419579 30861 layer_factory.hpp:77] Creating layer g_bn_6
I1217 21:22:07.419589 30861 net.cpp:107] Creating Layer g_bn_6
I1217 21:22:07.419595 30861 net.cpp:445] g_bn_6 <- g_conv_6
I1217 21:22:07.419605 30861 net.cpp:406] g_bn_6 -> g_conv_6 (in-place)
I1217 21:22:07.419623 30861 net.cpp:157] Setting up g_bn_6
I1217 21:22:07.419631 30861 net.cpp:164] Top shape: 1 32 32 32 (32768)
I1217 21:22:07.419637 30861 net.cpp:172] Memory required for data: 6209552
I1217 21:22:07.419648 30861 layer_factory.hpp:77] Creating layer g_scale_6
I1217 21:22:07.419658 30861 net.cpp:107] Creating Layer g_scale_6
I1217 21:22:07.419664 30861 net.cpp:445] g_scale_6 <- g_conv_6
I1217 21:22:07.419674 30861 net.cpp:406] g_scale_6 -> g_conv_6 (in-place)
I1217 21:22:07.419687 30861 layer_factory.hpp:77] Creating layer g_scale_6
I1217 21:22:07.419706 30861 net.cpp:157] Setting up g_scale_6
I1217 21:22:07.419716 30861 net.cpp:164] Top shape: 1 32 32 32 (32768)
I1217 21:22:07.419723 30861 net.cpp:172] Memory required for data: 6340624
I1217 21:22:07.419731 30861 layer_factory.hpp:77] Creating layer g_relu_6
I1217 21:22:07.419740 30861 net.cpp:107] Creating Layer g_relu_6
I1217 21:22:07.419746 30861 net.cpp:445] g_relu_6 <- g_conv_6
I1217 21:22:07.419754 30861 net.cpp:406] g_relu_6 -> g_conv_6 (in-place)
I1217 21:22:07.419764 30861 net.cpp:157] Setting up g_relu_6
I1217 21:22:07.419770 30861 net.cpp:164] Top shape: 1 32 32 32 (32768)
I1217 21:22:07.419776 30861 net.cpp:172] Memory required for data: 6471696
I1217 21:22:07.419782 30861 layer_factory.hpp:77] Creating layer g_upsample_2
I1217 21:22:07.419792 30861 net.cpp:107] Creating Layer g_upsample_2
I1217 21:22:07.419800 30861 net.cpp:445] g_upsample_2 <- g_conv_6
I1217 21:22:07.419806 30861 net.cpp:445] g_upsample_2 <- g_pooling_2_mask
I1217 21:22:07.419816 30861 net.cpp:419] g_upsample_2 -> g_upsample_2
I1217 21:22:07.419824 30861 upsample_layer.cpp:31] Params 'pad_out_{}_' are deprecated. Please declare upsample height and width useing the upsample_h, upsample_w parameters.
I1217 21:22:07.419832 30861 net.cpp:157] Setting up g_upsample_2
I1217 21:22:07.419841 30861 net.cpp:164] Top shape: 1 32 64 64 (131072)
I1217 21:22:07.419847 30861 net.cpp:172] Memory required for data: 6995984
I1217 21:22:07.419852 30861 layer_factory.hpp:77] Creating layer g_conv_7
I1217 21:22:07.419863 30861 net.cpp:107] Creating Layer g_conv_7
I1217 21:22:07.419869 30861 net.cpp:445] g_conv_7 <- g_upsample_2
I1217 21:22:07.419880 30861 net.cpp:419] g_conv_7 -> g_conv_7
I1217 21:22:07.420053 30861 net.cpp:157] Setting up g_conv_7
I1217 21:22:07.420064 30861 net.cpp:164] Top shape: 1 64 64 64 (262144)
I1217 21:22:07.420070 30861 net.cpp:172] Memory required for data: 8044560
I1217 21:22:07.420083 30861 layer_factory.hpp:77] Creating layer g_bn_7
I1217 21:22:07.420105 30861 net.cpp:107] Creating Layer g_bn_7
I1217 21:22:07.420112 30861 net.cpp:445] g_bn_7 <- g_conv_7
I1217 21:22:07.420121 30861 net.cpp:406] g_bn_7 -> g_conv_7 (in-place)
I1217 21:22:07.420145 30861 net.cpp:157] Setting up g_bn_7
I1217 21:22:07.420155 30861 net.cpp:164] Top shape: 1 64 64 64 (262144)
I1217 21:22:07.420161 30861 net.cpp:172] Memory required for data: 9093136
I1217 21:22:07.420171 30861 layer_factory.hpp:77] Creating layer g_scale_7
I1217 21:22:07.420181 30861 net.cpp:107] Creating Layer g_scale_7
I1217 21:22:07.420187 30861 net.cpp:445] g_scale_7 <- g_conv_7
I1217 21:22:07.420195 30861 net.cpp:406] g_scale_7 -> g_conv_7 (in-place)
I1217 21:22:07.420208 30861 layer_factory.hpp:77] Creating layer g_scale_7
I1217 21:22:07.420231 30861 net.cpp:157] Setting up g_scale_7
I1217 21:22:07.420240 30861 net.cpp:164] Top shape: 1 64 64 64 (262144)
I1217 21:22:07.420246 30861 net.cpp:172] Memory required for data: 10141712
I1217 21:22:07.420255 30861 layer_factory.hpp:77] Creating layer g_relu_7
I1217 21:22:07.420264 30861 net.cpp:107] Creating Layer g_relu_7
I1217 21:22:07.420269 30861 net.cpp:445] g_relu_7 <- g_conv_7
I1217 21:22:07.420280 30861 net.cpp:406] g_relu_7 -> g_conv_7 (in-place)
I1217 21:22:07.420290 30861 net.cpp:157] Setting up g_relu_7
I1217 21:22:07.420297 30861 net.cpp:164] Top shape: 1 64 64 64 (262144)
I1217 21:22:07.420303 30861 net.cpp:172] Memory required for data: 11190288
I1217 21:22:07.420310 30861 layer_factory.hpp:77] Creating layer concat
I1217 21:22:07.420318 30861 net.cpp:107] Creating Layer concat
I1217 21:22:07.420325 30861 net.cpp:445] concat <- gray_image_input_data_0_split_1
I1217 21:22:07.420332 30861 net.cpp:445] concat <- g_conv_7
I1217 21:22:07.420343 30861 net.cpp:419] concat -> concat
I1217 21:22:07.420356 30861 net.cpp:157] Setting up concat
I1217 21:22:07.420366 30861 net.cpp:164] Top shape: 1 66 64 64 (270336)
I1217 21:22:07.420370 30861 net.cpp:172] Memory required for data: 12271632
I1217 21:22:07.420377 30861 layer_factory.hpp:77] Creating layer g_conv_8
I1217 21:22:07.420389 30861 net.cpp:107] Creating Layer g_conv_8
I1217 21:22:07.420397 30861 net.cpp:445] g_conv_8 <- concat
I1217 21:22:07.420406 30861 net.cpp:419] g_conv_8 -> g_conv_8
I1217 21:22:07.420588 30861 net.cpp:157] Setting up g_conv_8
I1217 21:22:07.420598 30861 net.cpp:164] Top shape: 1 32 64 64 (131072)
I1217 21:22:07.420604 30861 net.cpp:172] Memory required for data: 12795920
I1217 21:22:07.420613 30861 layer_factory.hpp:77] Creating layer g_relu_8
I1217 21:22:07.420622 30861 net.cpp:107] Creating Layer g_relu_8
I1217 21:22:07.420629 30861 net.cpp:445] g_relu_8 <- g_conv_8
I1217 21:22:07.420637 30861 net.cpp:406] g_relu_8 -> g_conv_8 (in-place)
I1217 21:22:07.420646 30861 net.cpp:157] Setting up g_relu_8
I1217 21:22:07.420653 30861 net.cpp:164] Top shape: 1 32 64 64 (131072)
I1217 21:22:07.420660 30861 net.cpp:172] Memory required for data: 13320208
I1217 21:22:07.420665 30861 layer_factory.hpp:77] Creating layer g_conv_9
I1217 21:22:07.420678 30861 net.cpp:107] Creating Layer g_conv_9
I1217 21:22:07.420686 30861 net.cpp:445] g_conv_9 <- g_conv_8
I1217 21:22:07.420696 30861 net.cpp:419] g_conv_9 -> g_conv_9
I1217 21:22:07.420733 30861 net.cpp:157] Setting up g_conv_9
I1217 21:22:07.420743 30861 net.cpp:164] Top shape: 1 3 64 64 (12288)
I1217 21:22:07.420749 30861 net.cpp:172] Memory required for data: 13369360
I1217 21:22:07.420758 30861 layer_factory.hpp:77] Creating layer g_bn_9
I1217 21:22:07.420766 30861 net.cpp:107] Creating Layer g_bn_9
I1217 21:22:07.420773 30861 net.cpp:445] g_bn_9 <- g_conv_9
I1217 21:22:07.420781 30861 net.cpp:406] g_bn_9 -> g_conv_9 (in-place)
I1217 21:22:07.420804 30861 net.cpp:157] Setting up g_bn_9
I1217 21:22:07.420814 30861 net.cpp:164] Top shape: 1 3 64 64 (12288)
I1217 21:22:07.420820 30861 net.cpp:172] Memory required for data: 13418512
I1217 21:22:07.420830 30861 layer_factory.hpp:77] Creating layer g_scale_9
I1217 21:22:07.420840 30861 net.cpp:107] Creating Layer g_scale_9
I1217 21:22:07.420850 30861 net.cpp:445] g_scale_9 <- g_conv_9
I1217 21:22:07.420866 30861 net.cpp:406] g_scale_9 -> g_conv_9 (in-place)
I1217 21:22:07.420881 30861 layer_factory.hpp:77] Creating layer g_scale_9
I1217 21:22:07.420905 30861 net.cpp:157] Setting up g_scale_9
I1217 21:22:07.420914 30861 net.cpp:164] Top shape: 1 3 64 64 (12288)
I1217 21:22:07.420920 30861 net.cpp:172] Memory required for data: 13467664
I1217 21:22:07.420929 30861 layer_factory.hpp:77] Creating layer g_sigmoid_9
I1217 21:22:07.420939 30861 net.cpp:107] Creating Layer g_sigmoid_9
I1217 21:22:07.420945 30861 net.cpp:445] g_sigmoid_9 <- g_conv_9
I1217 21:22:07.420954 30861 net.cpp:406] g_sigmoid_9 -> g_conv_9 (in-place)
I1217 21:22:07.420965 30861 net.cpp:157] Setting up g_sigmoid_9
I1217 21:22:07.420974 30861 net.cpp:164] Top shape: 1 3 64 64 (12288)
I1217 21:22:07.420979 30861 net.cpp:172] Memory required for data: 13516816
I1217 21:22:07.420985 30861 layer_factory.hpp:77] Creating layer concat_2
I1217 21:22:07.420994 30861 net.cpp:107] Creating Layer concat_2
I1217 21:22:07.421000 30861 net.cpp:445] concat_2 <- color_image_input_data_1_split_0
I1217 21:22:07.421008 30861 net.cpp:445] concat_2 <- g_conv_9
I1217 21:22:07.421016 30861 net.cpp:419] concat_2 -> concat_2
I1217 21:22:07.421027 30861 net.cpp:157] Setting up concat_2
I1217 21:22:07.421036 30861 net.cpp:164] Top shape: 2 3 64 64 (24576)
I1217 21:22:07.421041 30861 net.cpp:172] Memory required for data: 13615120
I1217 21:22:07.421047 30861 layer_factory.hpp:77] Creating layer d_conv_1
I1217 21:22:07.421061 30861 net.cpp:107] Creating Layer d_conv_1
I1217 21:22:07.421067 30861 net.cpp:445] d_conv_1 <- concat_2
I1217 21:22:07.421078 30861 net.cpp:419] d_conv_1 -> d_conv_1
I1217 21:22:07.421119 30861 net.cpp:157] Setting up d_conv_1
I1217 21:22:07.421129 30861 net.cpp:164] Top shape: 2 64 64 64 (524288)
I1217 21:22:07.421135 30861 net.cpp:172] Memory required for data: 15712272
I1217 21:22:07.421144 30861 layer_factory.hpp:77] Creating layer d_relu_1
I1217 21:22:07.421152 30861 net.cpp:107] Creating Layer d_relu_1
I1217 21:22:07.421159 30861 net.cpp:445] d_relu_1 <- d_conv_1
I1217 21:22:07.421167 30861 net.cpp:406] d_relu_1 -> d_conv_1 (in-place)
I1217 21:22:07.421176 30861 net.cpp:157] Setting up d_relu_1
I1217 21:22:07.421183 30861 net.cpp:164] Top shape: 2 64 64 64 (524288)
I1217 21:22:07.421190 30861 net.cpp:172] Memory required for data: 17809424
I1217 21:22:07.421195 30861 layer_factory.hpp:77] Creating layer d_dropout_1
I1217 21:22:07.421205 30861 net.cpp:107] Creating Layer d_dropout_1
I1217 21:22:07.421211 30861 net.cpp:445] d_dropout_1 <- d_conv_1
I1217 21:22:07.421221 30861 net.cpp:406] d_dropout_1 -> d_conv_1 (in-place)
I1217 21:22:07.421234 30861 net.cpp:157] Setting up d_dropout_1
I1217 21:22:07.421242 30861 net.cpp:164] Top shape: 2 64 64 64 (524288)
I1217 21:22:07.421248 30861 net.cpp:172] Memory required for data: 19906576
I1217 21:22:07.421254 30861 layer_factory.hpp:77] Creating layer d_pooling_1
I1217 21:22:07.421263 30861 net.cpp:107] Creating Layer d_pooling_1
I1217 21:22:07.421269 30861 net.cpp:445] d_pooling_1 <- d_conv_1
I1217 21:22:07.421288 30861 net.cpp:419] d_pooling_1 -> d_pooling_1
I1217 21:22:07.421300 30861 net.cpp:157] Setting up d_pooling_1
I1217 21:22:07.421309 30861 net.cpp:164] Top shape: 2 64 32 32 (131072)
I1217 21:22:07.421314 30861 net.cpp:172] Memory required for data: 20430864
I1217 21:22:07.421320 30861 layer_factory.hpp:77] Creating layer d_conv_2
I1217 21:22:07.421334 30861 net.cpp:107] Creating Layer d_conv_2
I1217 21:22:07.421341 30861 net.cpp:445] d_conv_2 <- d_pooling_1
I1217 21:22:07.421352 30861 net.cpp:419] d_conv_2 -> d_conv_2
I1217 21:22:07.421958 30861 net.cpp:157] Setting up d_conv_2
I1217 21:22:07.421972 30861 net.cpp:164] Top shape: 2 128 32 32 (262144)
I1217 21:22:07.421977 30861 net.cpp:172] Memory required for data: 21479440
I1217 21:22:07.421986 30861 layer_factory.hpp:77] Creating layer d_relu_2
I1217 21:22:07.421994 30861 net.cpp:107] Creating Layer d_relu_2
I1217 21:22:07.422001 30861 net.cpp:445] d_relu_2 <- d_conv_2
I1217 21:22:07.422014 30861 net.cpp:406] d_relu_2 -> d_conv_2 (in-place)
I1217 21:22:07.422031 30861 net.cpp:157] Setting up d_relu_2
I1217 21:22:07.422039 30861 net.cpp:164] Top shape: 2 128 32 32 (262144)
I1217 21:22:07.422045 30861 net.cpp:172] Memory required for data: 22528016
I1217 21:22:07.422051 30861 layer_factory.hpp:77] Creating layer d_dropout_2
I1217 21:22:07.422062 30861 net.cpp:107] Creating Layer d_dropout_2
I1217 21:22:07.422068 30861 net.cpp:445] d_dropout_2 <- d_conv_2
I1217 21:22:07.422077 30861 net.cpp:406] d_dropout_2 -> d_conv_2 (in-place)
I1217 21:22:07.422087 30861 net.cpp:157] Setting up d_dropout_2
I1217 21:22:07.422096 30861 net.cpp:164] Top shape: 2 128 32 32 (262144)
I1217 21:22:07.422101 30861 net.cpp:172] Memory required for data: 23576592
I1217 21:22:07.422106 30861 layer_factory.hpp:77] Creating layer d_conv_3
I1217 21:22:07.422119 30861 net.cpp:107] Creating Layer d_conv_3
I1217 21:22:07.422127 30861 net.cpp:445] d_conv_3 <- d_conv_2
I1217 21:22:07.422137 30861 net.cpp:419] d_conv_3 -> d_conv_3
I1217 21:22:07.424528 30861 net.cpp:157] Setting up d_conv_3
I1217 21:22:07.424549 30861 net.cpp:164] Top shape: 2 256 32 32 (524288)
I1217 21:22:07.424556 30861 net.cpp:172] Memory required for data: 25673744
I1217 21:22:07.424566 30861 layer_factory.hpp:77] Creating layer d_relu_3
I1217 21:22:07.424574 30861 net.cpp:107] Creating Layer d_relu_3
I1217 21:22:07.424582 30861 net.cpp:445] d_relu_3 <- d_conv_3
I1217 21:22:07.424592 30861 net.cpp:406] d_relu_3 -> d_conv_3 (in-place)
I1217 21:22:07.424603 30861 net.cpp:157] Setting up d_relu_3
I1217 21:22:07.424612 30861 net.cpp:164] Top shape: 2 256 32 32 (524288)
I1217 21:22:07.424617 30861 net.cpp:172] Memory required for data: 27770896
I1217 21:22:07.424623 30861 layer_factory.hpp:77] Creating layer d_dropout_3
I1217 21:22:07.424630 30861 net.cpp:107] Creating Layer d_dropout_3
I1217 21:22:07.424638 30861 net.cpp:445] d_dropout_3 <- d_conv_3
I1217 21:22:07.424646 30861 net.cpp:406] d_dropout_3 -> d_conv_3 (in-place)
I1217 21:22:07.424657 30861 net.cpp:157] Setting up d_dropout_3
I1217 21:22:07.424665 30861 net.cpp:164] Top shape: 2 256 32 32 (524288)
I1217 21:22:07.424671 30861 net.cpp:172] Memory required for data: 29868048
I1217 21:22:07.424677 30861 layer_factory.hpp:77] Creating layer d_pooling_3
I1217 21:22:07.424686 30861 net.cpp:107] Creating Layer d_pooling_3
I1217 21:22:07.424692 30861 net.cpp:445] d_pooling_3 <- d_conv_3
I1217 21:22:07.424702 30861 net.cpp:419] d_pooling_3 -> d_pooling_3
I1217 21:22:07.424716 30861 net.cpp:157] Setting up d_pooling_3
I1217 21:22:07.424726 30861 net.cpp:164] Top shape: 2 256 16 16 (131072)
I1217 21:22:07.424731 30861 net.cpp:172] Memory required for data: 30392336
I1217 21:22:07.424737 30861 layer_factory.hpp:77] Creating layer d_fc_4
I1217 21:22:07.424748 30861 net.cpp:107] Creating Layer d_fc_4
I1217 21:22:07.424754 30861 net.cpp:445] d_fc_4 <- d_pooling_3
I1217 21:22:07.424767 30861 net.cpp:419] d_fc_4 -> d_fc_4
I1217 21:22:07.485407 30861 net.cpp:157] Setting up d_fc_4
I1217 21:22:07.485456 30861 net.cpp:164] Top shape: 2 128 (256)
I1217 21:22:07.485472 30861 net.cpp:172] Memory required for data: 30393360
I1217 21:22:07.485502 30861 layer_factory.hpp:77] Creating layer d_prelu_4
I1217 21:22:07.485517 30861 net.cpp:107] Creating Layer d_prelu_4
I1217 21:22:07.485524 30861 net.cpp:445] d_prelu_4 <- d_fc_4
I1217 21:22:07.485534 30861 net.cpp:406] d_prelu_4 -> d_fc_4 (in-place)
I1217 21:22:07.485560 30861 net.cpp:157] Setting up d_prelu_4
I1217 21:22:07.485569 30861 net.cpp:164] Top shape: 2 128 (256)
I1217 21:22:07.485574 30861 net.cpp:172] Memory required for data: 30394384
I1217 21:22:07.485581 30861 layer_factory.hpp:77] Creating layer d_dropout_4
I1217 21:22:07.485590 30861 net.cpp:107] Creating Layer d_dropout_4
I1217 21:22:07.485596 30861 net.cpp:445] d_dropout_4 <- d_fc_4
I1217 21:22:07.485605 30861 net.cpp:406] d_dropout_4 -> d_fc_4 (in-place)
I1217 21:22:07.485615 30861 net.cpp:157] Setting up d_dropout_4
I1217 21:22:07.485622 30861 net.cpp:164] Top shape: 2 128 (256)
I1217 21:22:07.485635 30861 net.cpp:172] Memory required for data: 30395408
I1217 21:22:07.485653 30861 layer_factory.hpp:77] Creating layer d_fc_5
I1217 21:22:07.485666 30861 net.cpp:107] Creating Layer d_fc_5
I1217 21:22:07.485673 30861 net.cpp:445] d_fc_5 <- d_fc_4
I1217 21:22:07.485683 30861 net.cpp:419] d_fc_5 -> d_fc_5
I1217 21:22:07.485702 30861 net.cpp:157] Setting up d_fc_5
I1217 21:22:07.485710 30861 net.cpp:164] Top shape: 2 1 (2)
I1217 21:22:07.485716 30861 net.cpp:172] Memory required for data: 30395416
I1217 21:22:07.485724 30861 layer_factory.hpp:77] Creating layer sigmoid_loss
I1217 21:22:07.485736 30861 net.cpp:107] Creating Layer sigmoid_loss
I1217 21:22:07.485743 30861 net.cpp:445] sigmoid_loss <- d_fc_5
I1217 21:22:07.485750 30861 net.cpp:445] sigmoid_loss <- label
I1217 21:22:07.485759 30861 net.cpp:419] sigmoid_loss -> sigmoid_loss
I1217 21:22:07.485774 30861 net.cpp:157] Setting up sigmoid_loss
I1217 21:22:07.485781 30861 net.cpp:164] Top shape: (1)
I1217 21:22:07.485786 30861 net.cpp:167]     with loss weight 1
I1217 21:22:07.485816 30861 net.cpp:172] Memory required for data: 30395420
I1217 21:22:07.485822 30861 layer_factory.hpp:77] Creating layer g_conv_1_g
I1217 21:22:07.485839 30861 net.cpp:107] Creating Layer g_conv_1_g
I1217 21:22:07.485846 30861 net.cpp:445] g_conv_1_g <- gray_image_input_data_0_split_2
I1217 21:22:07.485857 30861 net.cpp:419] g_conv_1_g -> g_conv_1_g
I1217 21:22:07.485889 30861 net.cpp:157] Setting up g_conv_1_g
I1217 21:22:07.485899 30861 net.cpp:164] Top shape: 1 16 64 64 (65536)
I1217 21:22:07.485905 30861 net.cpp:172] Memory required for data: 30657564
I1217 21:22:07.485913 30861 net.cpp:504] Sharing parameters 'g_conv_1_w' owned by layer 'g_conv_1', param index 0
I1217 21:22:07.485920 30861 net.cpp:504] Sharing parameters 'g_conv_1_b' owned by layer 'g_conv_1', param index 1
I1217 21:22:07.485926 30861 layer_factory.hpp:77] Creating layer g_bn_1_g
I1217 21:22:07.485937 30861 net.cpp:107] Creating Layer g_bn_1_g
I1217 21:22:07.485944 30861 net.cpp:445] g_bn_1_g <- g_conv_1_g
I1217 21:22:07.485952 30861 net.cpp:406] g_bn_1_g -> g_conv_1_g (in-place)
I1217 21:22:07.485972 30861 net.cpp:157] Setting up g_bn_1_g
I1217 21:22:07.485980 30861 net.cpp:164] Top shape: 1 16 64 64 (65536)
I1217 21:22:07.485985 30861 net.cpp:172] Memory required for data: 30919708
I1217 21:22:07.485996 30861 layer_factory.hpp:77] Creating layer g_scale_1_g
I1217 21:22:07.486006 30861 net.cpp:107] Creating Layer g_scale_1_g
I1217 21:22:07.486012 30861 net.cpp:445] g_scale_1_g <- g_conv_1_g
I1217 21:22:07.486021 30861 net.cpp:406] g_scale_1_g -> g_conv_1_g (in-place)
I1217 21:22:07.486042 30861 layer_factory.hpp:77] Creating layer g_scale_1_g
I1217 21:22:07.486069 30861 net.cpp:157] Setting up g_scale_1_g
I1217 21:22:07.486078 30861 net.cpp:164] Top shape: 1 16 64 64 (65536)
I1217 21:22:07.486084 30861 net.cpp:172] Memory required for data: 31181852
I1217 21:22:07.486093 30861 layer_factory.hpp:77] Creating layer g_relu_1_g
I1217 21:22:07.486102 30861 net.cpp:107] Creating Layer g_relu_1_g
I1217 21:22:07.486109 30861 net.cpp:445] g_relu_1_g <- g_conv_1_g
I1217 21:22:07.486116 30861 net.cpp:406] g_relu_1_g -> g_conv_1_g (in-place)
I1217 21:22:07.486124 30861 net.cpp:157] Setting up g_relu_1_g
I1217 21:22:07.486132 30861 net.cpp:164] Top shape: 1 16 64 64 (65536)
I1217 21:22:07.486137 30861 net.cpp:172] Memory required for data: 31443996
I1217 21:22:07.486143 30861 layer_factory.hpp:77] Creating layer g_conv_2_g
I1217 21:22:07.486156 30861 net.cpp:107] Creating Layer g_conv_2_g
I1217 21:22:07.486162 30861 net.cpp:445] g_conv_2_g <- g_conv_1_g
I1217 21:22:07.486173 30861 net.cpp:419] g_conv_2_g -> g_conv_2_g
I1217 21:22:07.486233 30861 net.cpp:157] Setting up g_conv_2_g
I1217 21:22:07.486245 30861 net.cpp:164] Top shape: 1 32 64 64 (131072)
I1217 21:22:07.486250 30861 net.cpp:172] Memory required for data: 31968284
I1217 21:22:07.486258 30861 net.cpp:504] Sharing parameters 'g_conv_2_w' owned by layer 'g_conv_2', param index 0
I1217 21:22:07.486264 30861 net.cpp:504] Sharing parameters 'g_conv_2_b' owned by layer 'g_conv_2', param index 1
I1217 21:22:07.486274 30861 layer_factory.hpp:77] Creating layer g_bn_2_g
I1217 21:22:07.486299 30861 net.cpp:107] Creating Layer g_bn_2_g
I1217 21:22:07.486305 30861 net.cpp:445] g_bn_2_g <- g_conv_2_g
I1217 21:22:07.486313 30861 net.cpp:406] g_bn_2_g -> g_conv_2_g (in-place)
I1217 21:22:07.486336 30861 net.cpp:157] Setting up g_bn_2_g
I1217 21:22:07.486344 30861 net.cpp:164] Top shape: 1 32 64 64 (131072)
I1217 21:22:07.486349 30861 net.cpp:172] Memory required for data: 32492572
I1217 21:22:07.486359 30861 layer_factory.hpp:77] Creating layer g_scale_2_g
I1217 21:22:07.486367 30861 net.cpp:107] Creating Layer g_scale_2_g
I1217 21:22:07.486373 30861 net.cpp:445] g_scale_2_g <- g_conv_2_g
I1217 21:22:07.486382 30861 net.cpp:406] g_scale_2_g -> g_conv_2_g (in-place)
I1217 21:22:07.486394 30861 layer_factory.hpp:77] Creating layer g_scale_2_g
I1217 21:22:07.486434 30861 net.cpp:157] Setting up g_scale_2_g
I1217 21:22:07.486459 30861 net.cpp:164] Top shape: 1 32 64 64 (131072)
I1217 21:22:07.486469 30861 net.cpp:172] Memory required for data: 33016860
I1217 21:22:07.486484 30861 layer_factory.hpp:77] Creating layer g_relu_2_g
I1217 21:22:07.486496 30861 net.cpp:107] Creating Layer g_relu_2_g
I1217 21:22:07.486507 30861 net.cpp:445] g_relu_2_g <- g_conv_2_g
I1217 21:22:07.486524 30861 net.cpp:406] g_relu_2_g -> g_conv_2_g (in-place)
I1217 21:22:07.486541 30861 net.cpp:157] Setting up g_relu_2_g
I1217 21:22:07.486555 30861 net.cpp:164] Top shape: 1 32 64 64 (131072)
I1217 21:22:07.486564 30861 net.cpp:172] Memory required for data: 33541148
I1217 21:22:07.486575 30861 layer_factory.hpp:77] Creating layer g_pooling_2_g
I1217 21:22:07.486588 30861 net.cpp:107] Creating Layer g_pooling_2_g
I1217 21:22:07.486594 30861 net.cpp:445] g_pooling_2_g <- g_conv_2_g
I1217 21:22:07.486606 30861 net.cpp:419] g_pooling_2_g -> g_pooling_2_g
I1217 21:22:07.486618 30861 net.cpp:419] g_pooling_2_g -> g_pooling_2_mask_g
I1217 21:22:07.486632 30861 net.cpp:157] Setting up g_pooling_2_g
I1217 21:22:07.486640 30861 net.cpp:164] Top shape: 1 32 32 32 (32768)
I1217 21:22:07.486649 30861 net.cpp:164] Top shape: 1 32 32 32 (32768)
I1217 21:22:07.486657 30861 net.cpp:172] Memory required for data: 33803292
I1217 21:22:07.486667 30861 layer_factory.hpp:77] Creating layer g_conv_3_g
I1217 21:22:07.486688 30861 net.cpp:107] Creating Layer g_conv_3_g
I1217 21:22:07.486697 30861 net.cpp:445] g_conv_3_g <- g_pooling_2_g
I1217 21:22:07.486711 30861 net.cpp:419] g_conv_3_g -> g_conv_3_g
I1217 21:22:07.486886 30861 net.cpp:157] Setting up g_conv_3_g
I1217 21:22:07.486903 30861 net.cpp:164] Top shape: 1 64 32 32 (65536)
I1217 21:22:07.486914 30861 net.cpp:172] Memory required for data: 34065436
I1217 21:22:07.486923 30861 net.cpp:504] Sharing parameters 'g_conv_3_w' owned by layer 'g_conv_3', param index 0
I1217 21:22:07.486930 30861 net.cpp:504] Sharing parameters 'g_conv_3_b' owned by layer 'g_conv_3', param index 1
I1217 21:22:07.486943 30861 layer_factory.hpp:77] Creating layer g_bn_3_g
I1217 21:22:07.486960 30861 net.cpp:107] Creating Layer g_bn_3_g
I1217 21:22:07.486968 30861 net.cpp:445] g_bn_3_g <- g_conv_3_g
I1217 21:22:07.486980 30861 net.cpp:406] g_bn_3_g -> g_conv_3_g (in-place)
I1217 21:22:07.487009 30861 net.cpp:157] Setting up g_bn_3_g
I1217 21:22:07.487026 30861 net.cpp:164] Top shape: 1 64 32 32 (65536)
I1217 21:22:07.487040 30861 net.cpp:172] Memory required for data: 34327580
I1217 21:22:07.487056 30861 layer_factory.hpp:77] Creating layer g_scale_3_g
I1217 21:22:07.487071 30861 net.cpp:107] Creating Layer g_scale_3_g
I1217 21:22:07.487083 30861 net.cpp:445] g_scale_3_g <- g_conv_3_g
I1217 21:22:07.487103 30861 net.cpp:406] g_scale_3_g -> g_conv_3_g (in-place)
I1217 21:22:07.487118 30861 layer_factory.hpp:77] Creating layer g_scale_3_g
I1217 21:22:07.487140 30861 net.cpp:157] Setting up g_scale_3_g
I1217 21:22:07.487149 30861 net.cpp:164] Top shape: 1 64 32 32 (65536)
I1217 21:22:07.487154 30861 net.cpp:172] Memory required for data: 34589724
I1217 21:22:07.487162 30861 layer_factory.hpp:77] Creating layer g_relu_3_g
I1217 21:22:07.487176 30861 net.cpp:107] Creating Layer g_relu_3_g
I1217 21:22:07.487190 30861 net.cpp:445] g_relu_3_g <- g_conv_3_g
I1217 21:22:07.487197 30861 net.cpp:406] g_relu_3_g -> g_conv_3_g (in-place)
I1217 21:22:07.487206 30861 net.cpp:157] Setting up g_relu_3_g
I1217 21:22:07.487213 30861 net.cpp:164] Top shape: 1 64 32 32 (65536)
I1217 21:22:07.487220 30861 net.cpp:172] Memory required for data: 34851868
I1217 21:22:07.487224 30861 layer_factory.hpp:77] Creating layer g_pooling_3_g
I1217 21:22:07.487233 30861 net.cpp:107] Creating Layer g_pooling_3_g
I1217 21:22:07.487239 30861 net.cpp:445] g_pooling_3_g <- g_conv_3_g
I1217 21:22:07.487247 30861 net.cpp:419] g_pooling_3_g -> g_pooling_3_g
I1217 21:22:07.487259 30861 net.cpp:419] g_pooling_3_g -> g_pooling_3_mask_g
I1217 21:22:07.487272 30861 net.cpp:157] Setting up g_pooling_3_g
I1217 21:22:07.487278 30861 net.cpp:164] Top shape: 1 64 16 16 (16384)
I1217 21:22:07.487285 30861 net.cpp:164] Top shape: 1 64 16 16 (16384)
I1217 21:22:07.487292 30861 net.cpp:172] Memory required for data: 34982940
I1217 21:22:07.487296 30861 layer_factory.hpp:77] Creating layer g_conv_4_g
I1217 21:22:07.487308 30861 net.cpp:107] Creating Layer g_conv_4_g
I1217 21:22:07.487313 30861 net.cpp:445] g_conv_4_g <- g_pooling_3_g
I1217 21:22:07.487324 30861 net.cpp:419] g_conv_4_g -> g_conv_4_g
I1217 21:22:07.487889 30861 net.cpp:157] Setting up g_conv_4_g
I1217 21:22:07.487900 30861 net.cpp:164] Top shape: 1 128 16 16 (32768)
I1217 21:22:07.487905 30861 net.cpp:172] Memory required for data: 35114012
I1217 21:22:07.487912 30861 net.cpp:504] Sharing parameters 'g_conv_4_w' owned by layer 'g_conv_4', param index 0
I1217 21:22:07.487920 30861 net.cpp:504] Sharing parameters 'g_conv_4_b' owned by layer 'g_conv_4', param index 1
I1217 21:22:07.487926 30861 layer_factory.hpp:77] Creating layer g_bn_4_g
I1217 21:22:07.487936 30861 net.cpp:107] Creating Layer g_bn_4_g
I1217 21:22:07.487941 30861 net.cpp:445] g_bn_4_g <- g_conv_4_g
I1217 21:22:07.487949 30861 net.cpp:406] g_bn_4_g -> g_conv_4_g (in-place)
I1217 21:22:07.487965 30861 net.cpp:157] Setting up g_bn_4_g
I1217 21:22:07.487973 30861 net.cpp:164] Top shape: 1 128 16 16 (32768)
I1217 21:22:07.487979 30861 net.cpp:172] Memory required for data: 35245084
I1217 21:22:07.487988 30861 layer_factory.hpp:77] Creating layer g_scale_4_g
I1217 21:22:07.487998 30861 net.cpp:107] Creating Layer g_scale_4_g
I1217 21:22:07.488004 30861 net.cpp:445] g_scale_4_g <- g_conv_4_g
I1217 21:22:07.488013 30861 net.cpp:406] g_scale_4_g -> g_conv_4_g (in-place)
I1217 21:22:07.488026 30861 layer_factory.hpp:77] Creating layer g_scale_4_g
I1217 21:22:07.488044 30861 net.cpp:157] Setting up g_scale_4_g
I1217 21:22:07.488052 30861 net.cpp:164] Top shape: 1 128 16 16 (32768)
I1217 21:22:07.488057 30861 net.cpp:172] Memory required for data: 35376156
I1217 21:22:07.488065 30861 layer_factory.hpp:77] Creating layer g_relu_4_g
I1217 21:22:07.488073 30861 net.cpp:107] Creating Layer g_relu_4_g
I1217 21:22:07.488080 30861 net.cpp:445] g_relu_4_g <- g_conv_4_g
I1217 21:22:07.488090 30861 net.cpp:406] g_relu_4_g -> g_conv_4_g (in-place)
I1217 21:22:07.488097 30861 net.cpp:157] Setting up g_relu_4_g
I1217 21:22:07.488106 30861 net.cpp:164] Top shape: 1 128 16 16 (32768)
I1217 21:22:07.488111 30861 net.cpp:172] Memory required for data: 35507228
I1217 21:22:07.488116 30861 layer_factory.hpp:77] Creating layer g_conv_5_g
I1217 21:22:07.488128 30861 net.cpp:107] Creating Layer g_conv_5_g
I1217 21:22:07.488134 30861 net.cpp:445] g_conv_5_g <- g_conv_4_g
I1217 21:22:07.488145 30861 net.cpp:419] g_conv_5_g -> g_conv_5_g
I1217 21:22:07.488704 30861 net.cpp:157] Setting up g_conv_5_g
I1217 21:22:07.488715 30861 net.cpp:164] Top shape: 1 64 16 16 (16384)
I1217 21:22:07.488721 30861 net.cpp:172] Memory required for data: 35572764
I1217 21:22:07.488728 30861 net.cpp:504] Sharing parameters 'g_conv_5_w' owned by layer 'g_conv_5', param index 0
I1217 21:22:07.488734 30861 net.cpp:504] Sharing parameters 'g_conv_5_b' owned by layer 'g_conv_5', param index 1
I1217 21:22:07.488741 30861 layer_factory.hpp:77] Creating layer g_bn_5_g
I1217 21:22:07.488759 30861 net.cpp:107] Creating Layer g_bn_5_g
I1217 21:22:07.488765 30861 net.cpp:445] g_bn_5_g <- g_conv_5_g
I1217 21:22:07.488775 30861 net.cpp:406] g_bn_5_g -> g_conv_5_g (in-place)
I1217 21:22:07.488791 30861 net.cpp:157] Setting up g_bn_5_g
I1217 21:22:07.488800 30861 net.cpp:164] Top shape: 1 64 16 16 (16384)
I1217 21:22:07.488806 30861 net.cpp:172] Memory required for data: 35638300
I1217 21:22:07.488814 30861 layer_factory.hpp:77] Creating layer g_scale_5_g
I1217 21:22:07.488824 30861 net.cpp:107] Creating Layer g_scale_5_g
I1217 21:22:07.488831 30861 net.cpp:445] g_scale_5_g <- g_conv_5_g
I1217 21:22:07.488837 30861 net.cpp:406] g_scale_5_g -> g_conv_5_g (in-place)
I1217 21:22:07.488849 30861 layer_factory.hpp:77] Creating layer g_scale_5_g
I1217 21:22:07.488867 30861 net.cpp:157] Setting up g_scale_5_g
I1217 21:22:07.488875 30861 net.cpp:164] Top shape: 1 64 16 16 (16384)
I1217 21:22:07.488881 30861 net.cpp:172] Memory required for data: 35703836
I1217 21:22:07.488889 30861 layer_factory.hpp:77] Creating layer g_relu_5_g
I1217 21:22:07.488898 30861 net.cpp:107] Creating Layer g_relu_5_g
I1217 21:22:07.488904 30861 net.cpp:445] g_relu_5_g <- g_conv_5_g
I1217 21:22:07.488912 30861 net.cpp:406] g_relu_5_g -> g_conv_5_g (in-place)
I1217 21:22:07.488920 30861 net.cpp:157] Setting up g_relu_5_g
I1217 21:22:07.488927 30861 net.cpp:164] Top shape: 1 64 16 16 (16384)
I1217 21:22:07.488932 30861 net.cpp:172] Memory required for data: 35769372
I1217 21:22:07.488939 30861 layer_factory.hpp:77] Creating layer g_upsample_1_g
I1217 21:22:07.488948 30861 net.cpp:107] Creating Layer g_upsample_1_g
I1217 21:22:07.488955 30861 net.cpp:445] g_upsample_1_g <- g_conv_5_g
I1217 21:22:07.488962 30861 net.cpp:445] g_upsample_1_g <- g_pooling_3_mask_g
I1217 21:22:07.488970 30861 net.cpp:419] g_upsample_1_g -> g_upsample_1_g
I1217 21:22:07.488981 30861 upsample_layer.cpp:31] Params 'pad_out_{}_' are deprecated. Please declare upsample height and width useing the upsample_h, upsample_w parameters.
I1217 21:22:07.488988 30861 net.cpp:157] Setting up g_upsample_1_g
I1217 21:22:07.488996 30861 net.cpp:164] Top shape: 1 64 32 32 (65536)
I1217 21:22:07.489001 30861 net.cpp:172] Memory required for data: 36031516
I1217 21:22:07.489006 30861 layer_factory.hpp:77] Creating layer g_conv_6_g
I1217 21:22:07.489018 30861 net.cpp:107] Creating Layer g_conv_6_g
I1217 21:22:07.489025 30861 net.cpp:445] g_conv_6_g <- g_upsample_1_g
I1217 21:22:07.489035 30861 net.cpp:419] g_conv_6_g -> g_conv_6_g
I1217 21:22:07.489194 30861 net.cpp:157] Setting up g_conv_6_g
I1217 21:22:07.489205 30861 net.cpp:164] Top shape: 1 32 32 32 (32768)
I1217 21:22:07.489212 30861 net.cpp:172] Memory required for data: 36162588
I1217 21:22:07.489217 30861 net.cpp:504] Sharing parameters 'g_conv_6_w' owned by layer 'g_conv_6', param index 0
I1217 21:22:07.489224 30861 net.cpp:504] Sharing parameters 'g_conv_6_b' owned by layer 'g_conv_6', param index 1
I1217 21:22:07.489231 30861 layer_factory.hpp:77] Creating layer g_bn_6_g
I1217 21:22:07.489241 30861 net.cpp:107] Creating Layer g_bn_6_g
I1217 21:22:07.489248 30861 net.cpp:445] g_bn_6_g <- g_conv_6_g
I1217 21:22:07.489258 30861 net.cpp:406] g_bn_6_g -> g_conv_6_g (in-place)
I1217 21:22:07.489274 30861 net.cpp:157] Setting up g_bn_6_g
I1217 21:22:07.489291 30861 net.cpp:164] Top shape: 1 32 32 32 (32768)
I1217 21:22:07.489297 30861 net.cpp:172] Memory required for data: 36293660
I1217 21:22:07.489306 30861 layer_factory.hpp:77] Creating layer g_scale_6_g
I1217 21:22:07.489316 30861 net.cpp:107] Creating Layer g_scale_6_g
I1217 21:22:07.489322 30861 net.cpp:445] g_scale_6_g <- g_conv_6_g
I1217 21:22:07.489331 30861 net.cpp:406] g_scale_6_g -> g_conv_6_g (in-place)
I1217 21:22:07.489344 30861 layer_factory.hpp:77] Creating layer g_scale_6_g
I1217 21:22:07.489364 30861 net.cpp:157] Setting up g_scale_6_g
I1217 21:22:07.489372 30861 net.cpp:164] Top shape: 1 32 32 32 (32768)
I1217 21:22:07.489378 30861 net.cpp:172] Memory required for data: 36424732
I1217 21:22:07.489387 30861 layer_factory.hpp:77] Creating layer g_relu_6_g
I1217 21:22:07.489405 30861 net.cpp:107] Creating Layer g_relu_6_g
I1217 21:22:07.489413 30861 net.cpp:445] g_relu_6_g <- g_conv_6_g
I1217 21:22:07.489420 30861 net.cpp:406] g_relu_6_g -> g_conv_6_g (in-place)
I1217 21:22:07.489428 30861 net.cpp:157] Setting up g_relu_6_g
I1217 21:22:07.489436 30861 net.cpp:164] Top shape: 1 32 32 32 (32768)
I1217 21:22:07.489441 30861 net.cpp:172] Memory required for data: 36555804
I1217 21:22:07.489447 30861 layer_factory.hpp:77] Creating layer g_upsample_2_g
I1217 21:22:07.489455 30861 net.cpp:107] Creating Layer g_upsample_2_g
I1217 21:22:07.489461 30861 net.cpp:445] g_upsample_2_g <- g_conv_6_g
I1217 21:22:07.489469 30861 net.cpp:445] g_upsample_2_g <- g_pooling_2_mask_g
I1217 21:22:07.489476 30861 net.cpp:419] g_upsample_2_g -> g_upsample_2_g
I1217 21:22:07.489485 30861 upsample_layer.cpp:31] Params 'pad_out_{}_' are deprecated. Please declare upsample height and width useing the upsample_h, upsample_w parameters.
I1217 21:22:07.489492 30861 net.cpp:157] Setting up g_upsample_2_g
I1217 21:22:07.489500 30861 net.cpp:164] Top shape: 1 32 64 64 (131072)
I1217 21:22:07.489506 30861 net.cpp:172] Memory required for data: 37080092
I1217 21:22:07.489511 30861 layer_factory.hpp:77] Creating layer g_conv_7_g
I1217 21:22:07.489523 30861 net.cpp:107] Creating Layer g_conv_7_g
I1217 21:22:07.489529 30861 net.cpp:445] g_conv_7_g <- g_upsample_2_g
I1217 21:22:07.489538 30861 net.cpp:419] g_conv_7_g -> g_conv_7_g
I1217 21:22:07.489698 30861 net.cpp:157] Setting up g_conv_7_g
I1217 21:22:07.489711 30861 net.cpp:164] Top shape: 1 64 64 64 (262144)
I1217 21:22:07.489717 30861 net.cpp:172] Memory required for data: 38128668
I1217 21:22:07.489723 30861 net.cpp:504] Sharing parameters 'g_conv_7_w' owned by layer 'g_conv_7', param index 0
I1217 21:22:07.489729 30861 net.cpp:504] Sharing parameters 'g_conv_7_b' owned by layer 'g_conv_7', param index 1
I1217 21:22:07.489737 30861 layer_factory.hpp:77] Creating layer g_bn_7_g
I1217 21:22:07.489744 30861 net.cpp:107] Creating Layer g_bn_7_g
I1217 21:22:07.489750 30861 net.cpp:445] g_bn_7_g <- g_conv_7_g
I1217 21:22:07.489759 30861 net.cpp:406] g_bn_7_g -> g_conv_7_g (in-place)
I1217 21:22:07.489781 30861 net.cpp:157] Setting up g_bn_7_g
I1217 21:22:07.489790 30861 net.cpp:164] Top shape: 1 64 64 64 (262144)
I1217 21:22:07.489795 30861 net.cpp:172] Memory required for data: 39177244
I1217 21:22:07.489805 30861 layer_factory.hpp:77] Creating layer g_scale_7_g
I1217 21:22:07.489814 30861 net.cpp:107] Creating Layer g_scale_7_g
I1217 21:22:07.489821 30861 net.cpp:445] g_scale_7_g <- g_conv_7_g
I1217 21:22:07.489830 30861 net.cpp:406] g_scale_7_g -> g_conv_7_g (in-place)
I1217 21:22:07.489842 30861 layer_factory.hpp:77] Creating layer g_scale_7_g
I1217 21:22:07.489866 30861 net.cpp:157] Setting up g_scale_7_g
I1217 21:22:07.489874 30861 net.cpp:164] Top shape: 1 64 64 64 (262144)
I1217 21:22:07.489881 30861 net.cpp:172] Memory required for data: 40225820
I1217 21:22:07.489888 30861 layer_factory.hpp:77] Creating layer g_relu_7_g
I1217 21:22:07.489897 30861 net.cpp:107] Creating Layer g_relu_7_g
I1217 21:22:07.489902 30861 net.cpp:445] g_relu_7_g <- g_conv_7_g
I1217 21:22:07.489909 30861 net.cpp:406] g_relu_7_g -> g_conv_7_g (in-place)
I1217 21:22:07.489918 30861 net.cpp:157] Setting up g_relu_7_g
I1217 21:22:07.489925 30861 net.cpp:164] Top shape: 1 64 64 64 (262144)
I1217 21:22:07.489930 30861 net.cpp:172] Memory required for data: 41274396
I1217 21:22:07.489936 30861 layer_factory.hpp:77] Creating layer concat_g
I1217 21:22:07.489948 30861 net.cpp:107] Creating Layer concat_g
I1217 21:22:07.489953 30861 net.cpp:445] concat_g <- gray_image_input_data_0_split_3
I1217 21:22:07.489960 30861 net.cpp:445] concat_g <- g_conv_7_g
I1217 21:22:07.489969 30861 net.cpp:419] concat_g -> concat_g
I1217 21:22:07.489980 30861 net.cpp:157] Setting up concat_g
I1217 21:22:07.489989 30861 net.cpp:164] Top shape: 1 66 64 64 (270336)
I1217 21:22:07.489994 30861 net.cpp:172] Memory required for data: 42355740
I1217 21:22:07.490003 30861 layer_factory.hpp:77] Creating layer g_conv_8_g
I1217 21:22:07.490021 30861 net.cpp:107] Creating Layer g_conv_8_g
I1217 21:22:07.490028 30861 net.cpp:445] g_conv_8_g <- concat_g
I1217 21:22:07.490039 30861 net.cpp:419] g_conv_8_g -> g_conv_8_g
I1217 21:22:07.490209 30861 net.cpp:157] Setting up g_conv_8_g
I1217 21:22:07.490221 30861 net.cpp:164] Top shape: 1 32 64 64 (131072)
I1217 21:22:07.490226 30861 net.cpp:172] Memory required for data: 42880028
I1217 21:22:07.490232 30861 net.cpp:504] Sharing parameters 'g_conv_8_w' owned by layer 'g_conv_8', param index 0
I1217 21:22:07.490239 30861 net.cpp:504] Sharing parameters 'g_conv_8_b' owned by layer 'g_conv_8', param index 1
I1217 21:22:07.490245 30861 layer_factory.hpp:77] Creating layer g_relu_8_g
I1217 21:22:07.490253 30861 net.cpp:107] Creating Layer g_relu_8_g
I1217 21:22:07.490259 30861 net.cpp:445] g_relu_8_g <- g_conv_8_g
I1217 21:22:07.490268 30861 net.cpp:406] g_relu_8_g -> g_conv_8_g (in-place)
I1217 21:22:07.490278 30861 net.cpp:157] Setting up g_relu_8_g
I1217 21:22:07.490284 30861 net.cpp:164] Top shape: 1 32 64 64 (131072)
I1217 21:22:07.490290 30861 net.cpp:172] Memory required for data: 43404316
I1217 21:22:07.490295 30861 layer_factory.hpp:77] Creating layer g_conv_9_g
I1217 21:22:07.490308 30861 net.cpp:107] Creating Layer g_conv_9_g
I1217 21:22:07.490314 30861 net.cpp:445] g_conv_9_g <- g_conv_8_g
I1217 21:22:07.490322 30861 net.cpp:419] g_conv_9_g -> g_conv_9_g
I1217 21:22:07.490355 30861 net.cpp:157] Setting up g_conv_9_g
I1217 21:22:07.490365 30861 net.cpp:164] Top shape: 1 3 64 64 (12288)
I1217 21:22:07.490370 30861 net.cpp:172] Memory required for data: 43453468
I1217 21:22:07.490376 30861 net.cpp:504] Sharing parameters 'g_conv_9_w' owned by layer 'g_conv_9', param index 0
I1217 21:22:07.490383 30861 net.cpp:504] Sharing parameters 'g_conv_9_b' owned by layer 'g_conv_9', param index 1
I1217 21:22:07.490389 30861 layer_factory.hpp:77] Creating layer g_bn_9_g
I1217 21:22:07.490397 30861 net.cpp:107] Creating Layer g_bn_9_g
I1217 21:22:07.490403 30861 net.cpp:445] g_bn_9_g <- g_conv_9_g
I1217 21:22:07.490412 30861 net.cpp:406] g_bn_9_g -> g_conv_9_g (in-place)
I1217 21:22:07.490433 30861 net.cpp:157] Setting up g_bn_9_g
I1217 21:22:07.490442 30861 net.cpp:164] Top shape: 1 3 64 64 (12288)
I1217 21:22:07.490447 30861 net.cpp:172] Memory required for data: 43502620
I1217 21:22:07.490455 30861 layer_factory.hpp:77] Creating layer g_scale_9_g
I1217 21:22:07.490466 30861 net.cpp:107] Creating Layer g_scale_9_g
I1217 21:22:07.490473 30861 net.cpp:445] g_scale_9_g <- g_conv_9_g
I1217 21:22:07.490480 30861 net.cpp:406] g_scale_9_g -> g_conv_9_g (in-place)
I1217 21:22:07.490494 30861 layer_factory.hpp:77] Creating layer g_scale_9_g
I1217 21:22:07.490516 30861 net.cpp:157] Setting up g_scale_9_g
I1217 21:22:07.490525 30861 net.cpp:164] Top shape: 1 3 64 64 (12288)
I1217 21:22:07.490530 30861 net.cpp:172] Memory required for data: 43551772
I1217 21:22:07.490540 30861 layer_factory.hpp:77] Creating layer g_sigmoid_9_g
I1217 21:22:07.490548 30861 net.cpp:107] Creating Layer g_sigmoid_9_g
I1217 21:22:07.490555 30861 net.cpp:445] g_sigmoid_9_g <- g_conv_9_g
I1217 21:22:07.490562 30861 net.cpp:406] g_sigmoid_9_g -> g_conv_9_g (in-place)
I1217 21:22:07.490571 30861 net.cpp:157] Setting up g_sigmoid_9_g
I1217 21:22:07.490587 30861 net.cpp:164] Top shape: 1 3 64 64 (12288)
I1217 21:22:07.490594 30861 net.cpp:172] Memory required for data: 43600924
I1217 21:22:07.490600 30861 layer_factory.hpp:77] Creating layer concat_2_g
I1217 21:22:07.490608 30861 net.cpp:107] Creating Layer concat_2_g
I1217 21:22:07.490615 30861 net.cpp:445] concat_2_g <- color_image_input_data_1_split_1
I1217 21:22:07.490623 30861 net.cpp:445] concat_2_g <- g_conv_9_g
I1217 21:22:07.490641 30861 net.cpp:419] concat_2_g -> concat_2_g
I1217 21:22:07.490658 30861 net.cpp:157] Setting up concat_2_g
I1217 21:22:07.490666 30861 net.cpp:164] Top shape: 2 3 64 64 (24576)
I1217 21:22:07.490675 30861 net.cpp:172] Memory required for data: 43699228
I1217 21:22:07.490685 30861 layer_factory.hpp:77] Creating layer d_conv_1_g
I1217 21:22:07.490730 30861 net.cpp:107] Creating Layer d_conv_1_g
I1217 21:22:07.490748 30861 net.cpp:445] d_conv_1_g <- concat_2_g
I1217 21:22:07.490769 30861 net.cpp:419] d_conv_1_g -> d_conv_1_g
I1217 21:22:07.490820 30861 net.cpp:157] Setting up d_conv_1_g
I1217 21:22:07.490833 30861 net.cpp:164] Top shape: 2 64 64 64 (524288)
I1217 21:22:07.490839 30861 net.cpp:172] Memory required for data: 45796380
I1217 21:22:07.490845 30861 net.cpp:504] Sharing parameters 'd_conv_1_w' owned by layer 'd_conv_1', param index 0
I1217 21:22:07.490864 30861 net.cpp:504] Sharing parameters 'd_conv_1_b' owned by layer 'd_conv_1', param index 1
I1217 21:22:07.490872 30861 layer_factory.hpp:77] Creating layer d_relu_1_g
I1217 21:22:07.490881 30861 net.cpp:107] Creating Layer d_relu_1_g
I1217 21:22:07.490888 30861 net.cpp:445] d_relu_1_g <- d_conv_1_g
I1217 21:22:07.490900 30861 net.cpp:406] d_relu_1_g -> d_conv_1_g (in-place)
I1217 21:22:07.490911 30861 net.cpp:157] Setting up d_relu_1_g
I1217 21:22:07.490918 30861 net.cpp:164] Top shape: 2 64 64 64 (524288)
I1217 21:22:07.490924 30861 net.cpp:172] Memory required for data: 47893532
I1217 21:22:07.490931 30861 layer_factory.hpp:77] Creating layer d_dropout_1_g
I1217 21:22:07.490939 30861 net.cpp:107] Creating Layer d_dropout_1_g
I1217 21:22:07.490947 30861 net.cpp:445] d_dropout_1_g <- d_conv_1_g
I1217 21:22:07.490954 30861 net.cpp:406] d_dropout_1_g -> d_conv_1_g (in-place)
I1217 21:22:07.490964 30861 net.cpp:157] Setting up d_dropout_1_g
I1217 21:22:07.490974 30861 net.cpp:164] Top shape: 2 64 64 64 (524288)
I1217 21:22:07.490980 30861 net.cpp:172] Memory required for data: 49990684
I1217 21:22:07.490986 30861 layer_factory.hpp:77] Creating layer d_pooling_1_g
I1217 21:22:07.490995 30861 net.cpp:107] Creating Layer d_pooling_1_g
I1217 21:22:07.491001 30861 net.cpp:445] d_pooling_1_g <- d_conv_1_g
I1217 21:22:07.491010 30861 net.cpp:419] d_pooling_1_g -> d_pooling_1_g
I1217 21:22:07.491021 30861 net.cpp:157] Setting up d_pooling_1_g
I1217 21:22:07.491029 30861 net.cpp:164] Top shape: 2 64 32 32 (131072)
I1217 21:22:07.491035 30861 net.cpp:172] Memory required for data: 50514972
I1217 21:22:07.491041 30861 layer_factory.hpp:77] Creating layer d_conv_2_g
I1217 21:22:07.491056 30861 net.cpp:107] Creating Layer d_conv_2_g
I1217 21:22:07.491063 30861 net.cpp:445] d_conv_2_g <- d_pooling_1_g
I1217 21:22:07.491073 30861 net.cpp:419] d_conv_2_g -> d_conv_2_g
I1217 21:22:07.491683 30861 net.cpp:157] Setting up d_conv_2_g
I1217 21:22:07.491695 30861 net.cpp:164] Top shape: 2 128 32 32 (262144)
I1217 21:22:07.491701 30861 net.cpp:172] Memory required for data: 51563548
I1217 21:22:07.491709 30861 net.cpp:504] Sharing parameters 'd_conv_2_w' owned by layer 'd_conv_2', param index 0
I1217 21:22:07.491716 30861 net.cpp:504] Sharing parameters 'd_conv_2_b' owned by layer 'd_conv_2', param index 1
I1217 21:22:07.491724 30861 layer_factory.hpp:77] Creating layer d_relu_2_g
I1217 21:22:07.491732 30861 net.cpp:107] Creating Layer d_relu_2_g
I1217 21:22:07.491739 30861 net.cpp:445] d_relu_2_g <- d_conv_2_g
I1217 21:22:07.491749 30861 net.cpp:406] d_relu_2_g -> d_conv_2_g (in-place)
I1217 21:22:07.491758 30861 net.cpp:157] Setting up d_relu_2_g
I1217 21:22:07.491766 30861 net.cpp:164] Top shape: 2 128 32 32 (262144)
I1217 21:22:07.491771 30861 net.cpp:172] Memory required for data: 52612124
I1217 21:22:07.491777 30861 layer_factory.hpp:77] Creating layer d_dropout_2_g
I1217 21:22:07.491786 30861 net.cpp:107] Creating Layer d_dropout_2_g
I1217 21:22:07.491792 30861 net.cpp:445] d_dropout_2_g <- d_conv_2_g
I1217 21:22:07.491802 30861 net.cpp:406] d_dropout_2_g -> d_conv_2_g (in-place)
I1217 21:22:07.491812 30861 net.cpp:157] Setting up d_dropout_2_g
I1217 21:22:07.491821 30861 net.cpp:164] Top shape: 2 128 32 32 (262144)
I1217 21:22:07.491827 30861 net.cpp:172] Memory required for data: 53660700
I1217 21:22:07.491832 30861 layer_factory.hpp:77] Creating layer d_conv_3_g
I1217 21:22:07.491845 30861 net.cpp:107] Creating Layer d_conv_3_g
I1217 21:22:07.491852 30861 net.cpp:445] d_conv_3_g <- d_conv_2_g
I1217 21:22:07.491868 30861 net.cpp:419] d_conv_3_g -> d_conv_3_g
I1217 21:22:07.494174 30861 net.cpp:157] Setting up d_conv_3_g
I1217 21:22:07.494195 30861 net.cpp:164] Top shape: 2 256 32 32 (524288)
I1217 21:22:07.494201 30861 net.cpp:172] Memory required for data: 55757852
I1217 21:22:07.494209 30861 net.cpp:504] Sharing parameters 'd_conv_3_w' owned by layer 'd_conv_3', param index 0
I1217 21:22:07.494215 30861 net.cpp:504] Sharing parameters 'd_conv_3_b' owned by layer 'd_conv_3', param index 1
I1217 21:22:07.494221 30861 layer_factory.hpp:77] Creating layer d_relu_3_g
I1217 21:22:07.494230 30861 net.cpp:107] Creating Layer d_relu_3_g
I1217 21:22:07.494236 30861 net.cpp:445] d_relu_3_g <- d_conv_3_g
I1217 21:22:07.494244 30861 net.cpp:406] d_relu_3_g -> d_conv_3_g (in-place)
I1217 21:22:07.494253 30861 net.cpp:157] Setting up d_relu_3_g
I1217 21:22:07.494261 30861 net.cpp:164] Top shape: 2 256 32 32 (524288)
I1217 21:22:07.494266 30861 net.cpp:172] Memory required for data: 57855004
I1217 21:22:07.494271 30861 layer_factory.hpp:77] Creating layer d_dropout_3_g
I1217 21:22:07.494278 30861 net.cpp:107] Creating Layer d_dropout_3_g
I1217 21:22:07.494284 30861 net.cpp:445] d_dropout_3_g <- d_conv_3_g
I1217 21:22:07.494293 30861 net.cpp:406] d_dropout_3_g -> d_conv_3_g (in-place)
I1217 21:22:07.494303 30861 net.cpp:157] Setting up d_dropout_3_g
I1217 21:22:07.494310 30861 net.cpp:164] Top shape: 2 256 32 32 (524288)
I1217 21:22:07.494315 30861 net.cpp:172] Memory required for data: 59952156
I1217 21:22:07.494321 30861 layer_factory.hpp:77] Creating layer d_pooling_3_g
I1217 21:22:07.494330 30861 net.cpp:107] Creating Layer d_pooling_3_g
I1217 21:22:07.494336 30861 net.cpp:445] d_pooling_3_g <- d_conv_3_g
I1217 21:22:07.494344 30861 net.cpp:419] d_pooling_3_g -> d_pooling_3_g
I1217 21:22:07.494355 30861 net.cpp:157] Setting up d_pooling_3_g
I1217 21:22:07.494362 30861 net.cpp:164] Top shape: 2 256 16 16 (131072)
I1217 21:22:07.494369 30861 net.cpp:172] Memory required for data: 60476444
I1217 21:22:07.494374 30861 layer_factory.hpp:77] Creating layer d_fc_4_g
I1217 21:22:07.494385 30861 net.cpp:107] Creating Layer d_fc_4_g
I1217 21:22:07.494392 30861 net.cpp:445] d_fc_4_g <- d_pooling_3_g
I1217 21:22:07.494402 30861 net.cpp:419] d_fc_4_g -> d_fc_4_g
I1217 21:22:07.553961 30861 net.cpp:157] Setting up d_fc_4_g
I1217 21:22:07.554003 30861 net.cpp:164] Top shape: 2 128 (256)
I1217 21:22:07.554010 30861 net.cpp:172] Memory required for data: 60477468
I1217 21:22:07.554021 30861 net.cpp:504] Sharing parameters 'd_fc_4_w' owned by layer 'd_fc_4', param index 0
I1217 21:22:07.554031 30861 net.cpp:504] Sharing parameters 'd_fc_4_b' owned by layer 'd_fc_4', param index 1
I1217 21:22:07.554039 30861 layer_factory.hpp:77] Creating layer d_prelu_4_g
I1217 21:22:07.554055 30861 net.cpp:107] Creating Layer d_prelu_4_g
I1217 21:22:07.554064 30861 net.cpp:445] d_prelu_4_g <- d_fc_4_g
I1217 21:22:07.554075 30861 net.cpp:406] d_prelu_4_g -> d_fc_4_g (in-place)
I1217 21:22:07.554095 30861 net.cpp:157] Setting up d_prelu_4_g
I1217 21:22:07.554103 30861 net.cpp:164] Top shape: 2 128 (256)
I1217 21:22:07.554110 30861 net.cpp:172] Memory required for data: 60478492
I1217 21:22:07.554117 30861 layer_factory.hpp:77] Creating layer d_dropout_4_g
I1217 21:22:07.554129 30861 net.cpp:107] Creating Layer d_dropout_4_g
I1217 21:22:07.554136 30861 net.cpp:445] d_dropout_4_g <- d_fc_4_g
I1217 21:22:07.554144 30861 net.cpp:406] d_dropout_4_g -> d_fc_4_g (in-place)
I1217 21:22:07.554155 30861 net.cpp:157] Setting up d_dropout_4_g
I1217 21:22:07.554163 30861 net.cpp:164] Top shape: 2 128 (256)
I1217 21:22:07.554168 30861 net.cpp:172] Memory required for data: 60479516
I1217 21:22:07.554174 30861 layer_factory.hpp:77] Creating layer d_fc_5_g
I1217 21:22:07.554186 30861 net.cpp:107] Creating Layer d_fc_5_g
I1217 21:22:07.554193 30861 net.cpp:445] d_fc_5_g <- d_fc_4_g
I1217 21:22:07.554203 30861 net.cpp:419] d_fc_5_g -> d_fc_5_g
I1217 21:22:07.554224 30861 net.cpp:157] Setting up d_fc_5_g
I1217 21:22:07.554234 30861 net.cpp:164] Top shape: 2 1 (2)
I1217 21:22:07.554249 30861 net.cpp:172] Memory required for data: 60479524
I1217 21:22:07.554273 30861 net.cpp:504] Sharing parameters 'd_fc_5_w' owned by layer 'd_fc_5', param index 0
I1217 21:22:07.554286 30861 net.cpp:504] Sharing parameters 'd_fc_5_b' owned by layer 'd_fc_5', param index 1
I1217 21:22:07.554292 30861 layer_factory.hpp:77] Creating layer sigmoid_loss_g
I1217 21:22:07.554306 30861 net.cpp:107] Creating Layer sigmoid_loss_g
…
I1217 21:22:07.557292 30861 net.cpp:333] The NetState phase (1) differed from the phase (0) specified by a rule in layer d_fc_5_g
I1217 21:22:07.557310 30861 net.cpp:333] The NetState phase (1) differed from the phase (0) specified by a rule in layer sigmoid_loss_g
I1217 21:22:07.557569 30861 net.cpp:59] Initializing net from parameters: 
name: "GAN"
state {
  phase: TEST
}
layer {
  name: "input_data"
  type: "Python"
  top: "gray_image"
  top: "color_image"
  top: "label"
  top: "label_g"
  python_param {
    module: "data_layer"
    layer: "DataLayer"
    param_str: "{\'batch_size\': 1 , \'root_folder\': \'out_unaug_64x64/\', \'source\': \'train.txt\'}"
  }
}
layer {
  name: "g_conv_1"
  type: "Convolution"
  bottom: "gray_image"
  top: "g_conv_1"
  param {
    name: "g_conv_1_w"
    lr_mult: 1
    decay_mult: 1
    param_propagate_down: false
  }
  param {
    name: "g_conv_1_b"
    lr_mult: 2
    decay_mult: 0
    param_propagate_down: false
  }
  propagate_down: false
  convolution_param {
    num_output: 16
    pad: 1
    kernel_size: 3
    stride: 1
    weight_filler {
      type: "xavier"
    }
    bias_filler {
      type: "constant"
      value: 0
    }
  }
}
layer {
  name: "g_bn_1"
  type: "BatchNorm"
  bottom: "g_conv_1"
  top: "g_conv_1"
  batch_norm_param {
    use_global_stats: false
  }
}
layer {
  name: "g_scale_1"
  type: "Scale"
  bottom: "g_conv_1"
  top: "g_conv_1"
  scale_param {
    bias_term: true
  }
}
layer {
  name: "g_relu_1"
  type: "ReLU"
  bottom: "g_conv_1"
  top: "g_conv_1"
}
layer {
  name: "g_conv_2"
  type: "Convolution"
  bottom: "g_conv_1"
  top: "g_conv_2"
  param {
    name: "g_conv_2_w"
    lr_mult: 1
    decay_mult: 1
    param_propagate_down: false
  }
  param {
    name: "g_conv_2_b"
    lr_mult: 2
    decay_mult: 0
    param_propagate_down: false
  }
  propagate_down: false
  convolution_param {
    num_output: 32
    pad: 1
    kernel_size: 3
    stride: 1
    weight_filler {
      type: "xavier"
    }
    bias_filler {
      type: "constant"
      value: 0
    }
  }
}
layer {
  name: "g_bn_2"
  type: "BatchNorm"
  bottom: "g_conv_2"
  top: "g_conv_2"
  batch_norm_param {
    use_global_stats: false
  }
}
layer {
  name: "g_scale_2"
  type: "Scale"
  bottom: "g_conv_2"
  top: "g_conv_2"
  scale_param {
    bias_term: true
  }
}
layer {
  name: "g_relu_2"
  type: "ReLU"
  bottom: "g_conv_2"
  top: "g_conv_2"
}
layer {
  name: "g_pooling_2"
  type: "Pooling"
  bottom: "g_conv_2"
  top: "g_pooling_2"
  top: "g_pooling_2_mask"
  pooling_param {
    pool: MAX
    kernel_size: 2
    stride: 2
  }
}
layer {
  name: "g_conv_3"
  type: "Convolution"
  bottom: "g_pooling_2"
  top: "g_conv_3"
  param {
    name: "g_conv_3_w"
    lr_mult: 1
    decay_mult: 1
    param_propagate_down: false
  }
  param {
    name: "g_conv_3_b"
    lr_mult: 2
    decay_mult: 0
    param_propagate_down: false
  }
  propagate_down: false
  convolution_param {
    num_output: 64
    pad: 1
    kernel_size: 3
    stride: 1
    weight_filler {
      type: "xavier"
    }
    bias_filler {
      type: "constant"
      value: 0
    }
  }
}
layer {
  name: "g_bn_"
  type: "BatchNorm"
  bottom: "g_conv_3"
  top: "g_conv_3"
  batch_norm_param {
    use_global_stats: false
  }
}
layer {
  name: "g_scale_3"
  type: "Scale"
  bottom: "g_conv_3"
  top: "g_conv_3"
  scale_param {
    bias_term: true
  }
}
layer {
  name: "g_relu_3"
  type: "ReLU"
  bottom: "g_conv_3"
  top: "g_conv_3"
}
layer {
  name: "g_pooling_3"
  type: "Pooling"
  bottom: "g_conv_3"
  top: "g_pooling_3"
  top: "g_pooling_3_mask"
  pooling_param {
    pool: MAX
    kernel_size: 2
    stride: 2
  }
}
layer {
  name: "g_conv_4"
  type: "Convolution"
  bottom: "g_pooling_3"
  top: "g_conv_4"
  param {
    name: "g_conv_4_w"
    lr_mult: 1
    decay_mult: 1
    param_propagate_down: false
  }
  param {
    name: "g_conv_4_b"
    lr_mult: 2
    decay_mult: 0
    param_propagate_down: false
  }
  propagate_down: false
  convolution_param {
    num_output: 128
    pad: 1
    kernel_size: 3
    stride: 1
    weight_filler {
      type: "xavier"
    }
    bias_filler {
      type: "constant"
      value: 0
    }
  }
}
layer {
  name: "g_bn_4"
  type: "BatchNorm"
  bottom: "g_conv_4"
  top: "g_conv_4"
  batch_norm_param {
    use_global_stats: false
  }
}
layer {
  name: "g_scale_4"
  type: "Scale"
  bottom: "g_conv_4"
  top: "g_conv_4"
  scale_param {
    bias_term: true
  }
}
layer {
  name: "g_relu_4"
  type: "ReLU"
  bottom: "g_conv_4"
  top: "g_conv_4"
}
layer {
  name: "g_conv_5"
  type: "Convolution"
  bottom: "g_conv_4"
  top: "g_conv_5"
  param {
    name: "g_conv_5_w"
    lr_mult: 1
    decay_mult: 1
    param_propagate_down: false
  }
  param {
    name: "g_conv_5_b"
    lr_mult: 2
    decay_mult: 0
    param_propagate_down: false
  }
  propagate_down: false
  convolution_param {
    num_output: 64
    pad: 1
    kernel_size: 3
    stride: 1
    weight_filler {
      type: "xavier"
    }
    bias_filler {
      type: "constant"
      value: 0
    }
  }
}
layer {
  name: "g_bn_5"
  type: "BatchNorm"
  bottom: "g_conv_5"
  top: "g_conv_5"
  batch_norm_param {
    use_global_stats: false
  }
}
layer {
  name: "g_scale_5"
  type: "Scale"
  bottom: "g_conv_5"
  top: "g_conv_5"
  scale_param {
    bias_term: true
  }
}
layer {
  name: "g_relu_5"
  type: "ReLU"
  bottom: "g_conv_5"
  top: "g_conv_5"
}
layer {
  name: "g_upsample_1"
  type: "Upsample"
  bottom: "g_conv_5"
  bottom: "g_pooling_3_mask"
  top: "g_upsample_1"
  upsample_param {
    scale: 2
  }
}
layer {
  name: "g_conv_6"
  type: "Convolution"
  bottom: "g_upsample_1"
  top: "g_conv_6"
  param {
    name: "g_conv_6_w"
    lr_mult: 1
    decay_mult: 1
    param_propagate_down: false
  }
  param {
    name: "g_conv_6_b"
    lr_mult: 2
    decay_mult: 0
    param_propagate_down: false
  }
  propagate_down: false
  convolution_param {
    num_output: 32
    pad: 1
    kernel_size: 3
    stride: 1
    weight_filler {
      type: "xavier"
    }
    bias_filler {
      type: "constant"
      value: 0
    }
  }
}
layer {
  name: "g_bn_6"
  type: "BatchNorm"
  bottom: "g_conv_6"
  top: "g_conv_6"
  batch_norm_param {
    use_global_stats: false
  }
}
layer {
  name: "g_scale_6"
  type: "Scale"
  bottom: "g_conv_6"
  top: "g_conv_6"
  scale_param {
    bias_term: true
  }
}
layer {
  name: "g_relu_6"
  type: "ReLU"
  bottom: "g_conv_6"
  top: "g_conv_6"
}
layer {
  name: "g_upsample_2"
  type: "Upsample"
  bottom: "g_conv_6"
  bottom: "g_pooling_2_mask"
  top: "g_upsample_2"
  upsample_param {
    scale: 2
  }
}
layer {
  name: "g_conv_7"
  type: "Convolution"
  bottom: "g_upsample_2"
  top: "g_conv_7"
  param {
    name: "g_conv_7_w"
    lr_mult: 1
    decay_mult: 1
    param_propagate_down: false
  }
  param {
    name: "g_conv_7_b"
    lr_mult: 2
    decay_mult: 0
    param_propagate_down: false
  }
  propagate_down: false
  convolution_param {
    num_output: 64
    pad: 1
    kernel_size: 3
    stride: 1
    weight_filler {
      type: "xavier"
    }
    bias_filler {
      type: "constant"
      value: 0
    }
  }
}
layer {
  name: "g_bn_7"
  type: "BatchNorm"
  bottom: "g_conv_7"
  top: "g_conv_7"
  batch_norm_param {
    use_global_stats: false
  }
}
layer {
  name: "g_scale_7"
  type: "Scale"
  bottom: "g_conv_7"
  top: "g_conv_7"
  scale_param {
    bias_term: true
  }
}
layer {
  name: "g_relu_7"
  type: "ReLU"
  bottom: "g_conv_7"
  top: "g_conv_7"
}
layer {
  name: "concat"
  type: "Concat"
  bottom: "gray_image"
  bottom: "g_conv_7"
  top: "concat"
  concat_param {
    axis: 1
  }
}
layer {
  name: "g_conv_8"
  type: "Convolution"
  bottom: "concat"
  top: "g_conv_8"
  param {
    name: "g_conv_8_w"
    lr_mult: 1
    decay_mult: 1
    param_propagate_down: false
  }
  param {
    name: "g_conv_8_b"
    lr_mult: 2
    decay_mult: 0
    param_propagate_down: false
  }
  propagate_down: false
  convolution_param {
    num_output: 32
    pad: 1
    kernel_size: 3
    stride: 1
    weight_filler {
      type: "xavier"
    }
    bias_filler {
      type: "constant"
      value: 0
    }
  }
}
layer {
  name: "g_relu_8"
  type: "ReLU"
  bottom: "g_conv_8"
  top: "g_conv_8"
}
layer {
  name: "g_conv_9"
  type: "Convolution"
  bottom: "g_conv_8"
  top: "g_conv_9"
  param {
    name: "g_conv_9_w"
    lr_mult: 1
    decay_mult: 1
    param_propagate_down: false
  }
  param {
    name: "g_conv_9_b"
    lr_mult: 2
    decay_mult: 0
    param_propagate_down: false
  }
  propagate_down: false
  convolution_param {
    num_output: 3
    pad: 1
    kernel_size: 3
    stride: 1
    weight_filler {
      type: "xavier"
    }
    bias_filler {
      type: "constant"
      value: 0
    }
  }
}
layer {
  name: "output"
  type: "Python"
  bottom: "g_conv_9"
  bottom: "color_image"
  bottom: "label"
  bottom: "label_g"
  top: "output"
  include {
    phase: TEST
  }
  python_param {
    module: "gen_image"
    layer: "GenLayer"
    param_str: "{\'output_folder\': \'output/\'}"
  }
}
I1217 21:22:07.558089 30861 layer_factory.hpp:77] Creating layer input_data
I1217 21:22:07.558168 30861 net.cpp:107] Creating Layer input_data
I1217 21:22:07.558192 30861 net.cpp:419] input_data -> gray_image
I1217 21:22:07.558204 30861 net.cpp:419] input_data -> color_image
I1217 21:22:07.558214 30861 net.cpp:419] input_data -> label
I1217 21:22:07.558224 30861 net.cpp:419] input_data -> label_g
I1217 21:22:07.589117 30861 net.cpp:157] Setting up input_data
I1217 21:22:07.589159 30861 net.cpp:164] Top shape: 1 2 64 64 (8192)
I1217 21:22:07.589169 30861 net.cpp:164] Top shape: 1 3 64 64 (12288)
I1217 21:22:07.589179 30861 net.cpp:164] Top shape: 2 1 (2)
I1217 21:22:07.589192 30861 net.cpp:164] Top shape: 2 1 (2)
I1217 21:22:07.589202 30861 net.cpp:172] Memory required for data: 81936
I1217 21:22:07.589220 30861 layer_factory.hpp:77] Creating layer gray_image_input_data_0_split
I1217 21:22:07.589239 30861 net.cpp:107] Creating Layer gray_image_input_data_0_split
I1217 21:22:07.589253 30861 net.cpp:445] gray_image_input_data_0_split <- gray_image
I1217 21:22:07.589272 30861 net.cpp:419] gray_image_input_data_0_split -> gray_image_input_data_0_split_0
I1217 21:22:07.589298 30861 net.cpp:419] gray_image_input_data_0_split -> gray_image_input_data_0_split_1
I1217 21:22:07.589314 30861 net.cpp:157] Setting up gray_image_input_data_0_split
I1217 21:22:07.589323 30861 net.cpp:164] Top shape: 1 2 64 64 (8192)
I1217 21:22:07.589331 30861 net.cpp:164] Top shape: 1 2 64 64 (8192)
I1217 21:22:07.589337 30861 net.cpp:172] Memory required for data: 147472
I1217 21:22:07.589344 30861 layer_factory.hpp:77] Creating layer g_conv_1
I1217 21:22:07.589360 30861 net.cpp:107] Creating Layer g_conv_1
I1217 21:22:07.589367 30861 net.cpp:445] g_conv_1 <- gray_image_input_data_0_split_0
I1217 21:22:07.589378 30861 net.cpp:419] g_conv_1 -> g_conv_1
I1217 21:22:07.589416 30861 net.cpp:157] Setting up g_conv_1
I1217 21:22:07.589426 30861 net.cpp:164] Top shape: 1 16 64 64 (65536)
I1217 21:22:07.589433 30861 net.cpp:172] Memory required for data: 409616
I1217 21:22:07.589447 30861 layer_factory.hpp:77] Creating layer g_bn_1
I1217 21:22:07.589457 30861 net.cpp:107] Creating Layer g_bn_1
I1217 21:22:07.589463 30861 net.cpp:445] g_bn_1 <- g_conv_1
I1217 21:22:07.589473 30861 net.cpp:406] g_bn_1 -> g_conv_1 (in-place)
I1217 21:22:07.589491 30861 net.cpp:157] Setting up g_bn_1
I1217 21:22:07.589500 30861 net.cpp:164] Top shape: 1 16 64 64 (65536)
I1217 21:22:07.589506 30861 net.cpp:172] Memory required for data: 671760
I1217 21:22:07.589521 30861 layer_factory.hpp:77] Creating layer g_scale_1
I1217 21:22:07.589532 30861 net.cpp:107] Creating Layer g_scale_1
I1217 21:22:07.589539 30861 net.cpp:445] g_scale_1 <- g_conv_1
I1217 21:22:07.589547 30861 net.cpp:406] g_scale_1 -> g_conv_1 (in-place)
I1217 21:22:07.589563 30861 layer_factory.hpp:77] Creating layer g_scale_1
I1217 21:22:07.589588 30861 net.cpp:157] Setting up g_scale_1
I1217 21:22:07.589597 30861 net.cpp:164] Top shape: 1 16 64 64 (65536)
I1217 21:22:07.589603 30861 net.cpp:172] Memory required for data: 933904
I1217 21:22:07.589612 30861 layer_factory.hpp:77] Creating layer g_relu_1
I1217 21:22:07.589622 30861 net.cpp:107] Creating Layer g_relu_1
I1217 21:22:07.589627 30861 net.cpp:445] g_relu_1 <- g_conv_1
I1217 21:22:07.589646 30861 net.cpp:406] g_relu_1 -> g_conv_1 (in-place)
I1217 21:22:07.589668 30861 net.cpp:157] Setting up g_relu_1
I1217 21:22:07.589676 30861 net.cpp:164] Top shape: 1 16 64 64 (65536)
I1217 21:22:07.589682 30861 net.cpp:172] Memory required for data: 1196048
I1217 21:22:07.589689 30861 layer_factory.hpp:77] Creating layer g_conv_2
I1217 21:22:07.589701 30861 net.cpp:107] Creating Layer g_conv_2
I1217 21:22:07.589709 30861 net.cpp:445] g_conv_2 <- g_conv_1
I1217 21:22:07.589717 30861 net.cpp:419] g_conv_2 -> g_conv_2
I1217 21:22:07.589778 30861 net.cpp:157] Setting up g_conv_2
I1217 21:22:07.589788 30861 net.cpp:164] Top shape: 1 32 64 64 (131072)
I1217 21:22:07.589794 30861 net.cpp:172] Memory required for data: 1720336
I1217 21:22:07.589805 30861 layer_factory.hpp:77] Creating layer g_bn_2
I1217 21:22:07.589815 30861 net.cpp:107] Creating Layer g_bn_2
I1217 21:22:07.589821 30861 net.cpp:445] g_bn_2 <- g_conv_2
I1217 21:22:07.589830 30861 net.cpp:406] g_bn_2 -> g_conv_2 (in-place)
I1217 21:22:07.589848 30861 net.cpp:157] Setting up g_bn_2
I1217 21:22:07.589856 30861 net.cpp:164] Top shape: 1 32 64 64 (131072)
I1217 21:22:07.589862 30861 net.cpp:172] Memory required for data: 2244624
I1217 21:22:07.589874 30861 layer_factory.hpp:77] Creating layer g_scale_2
I1217 21:22:07.589884 30861 net.cpp:107] Creating Layer g_scale_2
I1217 21:22:07.589890 30861 net.cpp:445] g_scale_2 <- g_conv_2
I1217 21:22:07.589897 30861 net.cpp:406] g_scale_2 -> g_conv_2 (in-place)
I1217 21:22:07.589910 30861 layer_factory.hpp:77] Creating layer g_scale_2
I1217 21:22:07.589933 30861 net.cpp:157] Setting up g_scale_2
I1217 21:22:07.589942 30861 net.cpp:164] Top shape: 1 32 64 64 (131072)
I1217 21:22:07.589948 30861 net.cpp:172] Memory required for data: 2768912
I1217 21:22:07.589958 30861 layer_factory.hpp:77] Creating layer g_relu_2
I1217 21:22:07.589967 30861 net.cpp:107] Creating Layer g_relu_2
I1217 21:22:07.589972 30861 net.cpp:445] g_relu_2 <- g_conv_2
I1217 21:22:07.589980 30861 net.cpp:406] g_relu_2 -> g_conv_2 (in-place)
I1217 21:22:07.589989 30861 net.cpp:157] Setting up g_relu_2
I1217 21:22:07.589998 30861 net.cpp:164] Top shape: 1 32 64 64 (131072)
I1217 21:22:07.590003 30861 net.cpp:172] Memory required for data: 3293200
I1217 21:22:07.590009 30861 layer_factory.hpp:77] Creating layer g_pooling_2
I1217 21:22:07.590018 30861 net.cpp:107] Creating Layer g_pooling_2
I1217 21:22:07.590024 30861 net.cpp:445] g_pooling_2 <- g_conv_2
I1217 21:22:07.590034 30861 net.cpp:419] g_pooling_2 -> g_pooling_2
I1217 21:22:07.590044 30861 net.cpp:419] g_pooling_2 -> g_pooling_2_mask
I1217 21:22:07.590059 30861 net.cpp:157] Setting up g_pooling_2
I1217 21:22:07.590066 30861 net.cpp:164] Top shape: 1 32 32 32 (32768)
I1217 21:22:07.590075 30861 net.cpp:164] Top shape: 1 32 32 32 (32768)
I1217 21:22:07.590080 30861 net.cpp:172] Memory required for data: 3555344
I1217 21:22:07.590086 30861 layer_factory.hpp:77] Creating layer g_conv_3
I1217 21:22:07.590098 30861 net.cpp:107] Creating Layer g_conv_3
I1217 21:22:07.590104 30861 net.cpp:445] g_conv_3 <- g_pooling_2
I1217 21:22:07.590116 30861 net.cpp:419] g_conv_3 -> g_conv_3
I1217 21:22:07.590275 30861 net.cpp:157] Setting up g_conv_3
I1217 21:22:07.590286 30861 net.cpp:164] Top shape: 1 64 32 32 (65536)
I1217 21:22:07.590291 30861 net.cpp:172] Memory required for data: 3817488
I1217 21:22:07.590299 30861 layer_factory.hpp:77] Creating layer g_bn_
I1217 21:22:07.590309 30861 net.cpp:107] Creating Layer g_bn_
I1217 21:22:07.590315 30861 net.cpp:445] g_bn_ <- g_conv_3
I1217 21:22:07.590324 30861 net.cpp:406] g_bn_ -> g_conv_3 (in-place)
I1217 21:22:07.590340 30861 net.cpp:157] Setting up g_bn_
I1217 21:22:07.590348 30861 net.cpp:164] Top shape: 1 64 32 32 (65536)
I1217 21:22:07.590354 30861 net.cpp:172] Memory required for data: 4079632
I1217 21:22:07.590368 30861 layer_factory.hpp:77] Creating layer g_scale_3
I1217 21:22:07.590378 30861 net.cpp:107] Creating Layer g_scale_3
I1217 21:22:07.590384 30861 net.cpp:445] g_scale_3 <- g_conv_3
I1217 21:22:07.590392 30861 net.cpp:406] g_scale_3 -> g_conv_3 (in-place)
I1217 21:22:07.590417 30861 layer_factory.hpp:77] Creating layer g_scale_3
I1217 21:22:07.590435 30861 net.cpp:157] Setting up g_scale_3
I1217 21:22:07.590445 30861 net.cpp:164] Top shape: 1 64 32 32 (65536)
I1217 21:22:07.590451 30861 net.cpp:172] Memory required for data: 4341776
I1217 21:22:07.590459 30861 layer_factory.hpp:77] Creating layer g_relu_3
I1217 21:22:07.590467 30861 net.cpp:107] Creating Layer g_relu_3
I1217 21:22:07.590474 30861 net.cpp:445] g_relu_3 <- g_conv_3
I1217 21:22:07.590482 30861 net.cpp:406] g_relu_3 -> g_conv_3 (in-place)
I1217 21:22:07.590492 30861 net.cpp:157] Setting up g_relu_3
I1217 21:22:07.590498 30861 net.cpp:164] Top shape: 1 64 32 32 (65536)
I1217 21:22:07.590504 30861 net.cpp:172] Memory required for data: 4603920
I1217 21:22:07.590510 30861 layer_factory.hpp:77] Creating layer g_pooling_3
I1217 21:22:07.590519 30861 net.cpp:107] Creating Layer g_pooling_3
I1217 21:22:07.590525 30861 net.cpp:445] g_pooling_3 <- g_conv_3
I1217 21:22:07.590534 30861 net.cpp:419] g_pooling_3 -> g_pooling_3
I1217 21:22:07.590544 30861 net.cpp:419] g_pooling_3 -> g_pooling_3_mask
I1217 21:22:07.590556 30861 net.cpp:157] Setting up g_pooling_3
I1217 21:22:07.590564 30861 net.cpp:164] Top shape: 1 64 16 16 (16384)
I1217 21:22:07.590572 30861 net.cpp:164] Top shape: 1 64 16 16 (16384)
I1217 21:22:07.590577 30861 net.cpp:172] Memory required for data: 4734992
I1217 21:22:07.590584 30861 layer_factory.hpp:77] Creating layer g_conv_4
I1217 21:22:07.590597 30861 net.cpp:107] Creating Layer g_conv_4
I1217 21:22:07.590605 30861 net.cpp:445] g_conv_4 <- g_pooling_3
I1217 21:22:07.590615 30861 net.cpp:419] g_conv_4 -> g_conv_4
I1217 21:22:07.591187 30861 net.cpp:157] Setting up g_conv_4
I1217 21:22:07.591199 30861 net.cpp:164] Top shape: 1 128 16 16 (32768)
I1217 21:22:07.591205 30861 net.cpp:172] Memory required for data: 4866064
I1217 21:22:07.591214 30861 layer_factory.hpp:77] Creating layer g_bn_4
I1217 21:22:07.591223 30861 net.cpp:107] Creating Layer g_bn_4
I1217 21:22:07.591230 30861 net.cpp:445] g_bn_4 <- g_conv_4
I1217 21:22:07.591238 30861 net.cpp:406] g_bn_4 -> g_conv_4 (in-place)
I1217 21:22:07.591253 30861 net.cpp:157] Setting up g_bn_4
I1217 21:22:07.591262 30861 net.cpp:164] Top shape: 1 128 16 16 (32768)
I1217 21:22:07.591267 30861 net.cpp:172] Memory required for data: 4997136
I1217 21:22:07.591279 30861 layer_factory.hpp:77] Creating layer g_scale_4
I1217 21:22:07.591286 30861 net.cpp:107] Creating Layer g_scale_4
I1217 21:22:07.591294 30861 net.cpp:445] g_scale_4 <- g_conv_4
I1217 21:22:07.591301 30861 net.cpp:406] g_scale_4 -> g_conv_4 (in-place)
I1217 21:22:07.591313 30861 layer_factory.hpp:77] Creating layer g_scale_4
I1217 21:22:07.591331 30861 net.cpp:157] Setting up g_scale_4
I1217 21:22:07.591338 30861 net.cpp:164] Top shape: 1 128 16 16 (32768)
I1217 21:22:07.591344 30861 net.cpp:172] Memory required for data: 5128208
I1217 21:22:07.591353 30861 layer_factory.hpp:77] Creating layer g_relu_4
I1217 21:22:07.591361 30861 net.cpp:107] Creating Layer g_relu_4
I1217 21:22:07.591367 30861 net.cpp:445] g_relu_4 <- g_conv_4
I1217 21:22:07.591375 30861 net.cpp:406] g_relu_4 -> g_conv_4 (in-place)
I1217 21:22:07.591384 30861 net.cpp:157] Setting up g_relu_4
I1217 21:22:07.591392 30861 net.cpp:164] Top shape: 1 128 16 16 (32768)
I1217 21:22:07.591398 30861 net.cpp:172] Memory required for data: 5259280
I1217 21:22:07.591404 30861 layer_factory.hpp:77] Creating layer g_conv_5
I1217 21:22:07.591415 30861 net.cpp:107] Creating Layer g_conv_5
I1217 21:22:07.591423 30861 net.cpp:445] g_conv_5 <- g_conv_4
I1217 21:22:07.591433 30861 net.cpp:419] g_conv_5 -> g_conv_5
I1217 21:22:07.592006 30861 net.cpp:157] Setting up g_conv_5
I1217 21:22:07.592018 30861 net.cpp:164] Top shape: 1 64 16 16 (16384)
I1217 21:22:07.592025 30861 net.cpp:172] Memory required for data: 5324816
I1217 21:22:07.592033 30861 layer_factory.hpp:77] Creating layer g_bn_5
I1217 21:22:07.592042 30861 net.cpp:107] Creating Layer g_bn_5
I1217 21:22:07.592048 30861 net.cpp:445] g_bn_5 <- g_conv_5
I1217 21:22:07.592061 30861 net.cpp:406] g_bn_5 -> g_conv_5 (in-place)
I1217 21:22:07.592084 30861 net.cpp:157] Setting up g_bn_5
I1217 21:22:07.592093 30861 net.cpp:164] Top shape: 1 64 16 16 (16384)
I1217 21:22:07.592099 30861 net.cpp:172] Memory required for data: 5390352
I1217 21:22:07.592113 30861 layer_factory.hpp:77] Creating layer g_scale_5
I1217 21:22:07.592123 30861 net.cpp:107] Creating Layer g_scale_5
I1217 21:22:07.592129 30861 net.cpp:445] g_scale_5 <- g_conv_5
I1217 21:22:07.592138 30861 net.cpp:406] g_scale_5 -> g_conv_5 (in-place)
I1217 21:22:07.592150 30861 layer_factory.hpp:77] Creating layer g_scale_5
I1217 21:22:07.592167 30861 net.cpp:157] Setting up g_scale_5
I1217 21:22:07.592175 30861 net.cpp:164] Top shape: 1 64 16 16 (16384)
I1217 21:22:07.592181 30861 net.cpp:172] Memory required for data: 5455888
I1217 21:22:07.592190 30861 layer_factory.hpp:77] Creating layer g_relu_5
I1217 21:22:07.592198 30861 net.cpp:107] Creating Layer g_relu_5
I1217 21:22:07.592205 30861 net.cpp:445] g_relu_5 <- g_conv_5
I1217 21:22:07.592212 30861 net.cpp:406] g_relu_5 -> g_conv_5 (in-place)
I1217 21:22:07.592221 30861 net.cpp:157] Setting up g_relu_5
I1217 21:22:07.592229 30861 net.cpp:164] Top shape: 1 64 16 16 (16384)
I1217 21:22:07.592234 30861 net.cpp:172] Memory required for data: 5521424
I1217 21:22:07.592242 30861 layer_factory.hpp:77] Creating layer g_upsample_1
I1217 21:22:07.592249 30861 net.cpp:107] Creating Layer g_upsample_1
I1217 21:22:07.592257 30861 net.cpp:445] g_upsample_1 <- g_conv_5
I1217 21:22:07.592263 30861 net.cpp:445] g_upsample_1 <- g_pooling_3_mask
I1217 21:22:07.592272 30861 net.cpp:419] g_upsample_1 -> g_upsample_1
I1217 21:22:07.592281 30861 upsample_layer.cpp:31] Params 'pad_out_{}_' are deprecated. Please declare upsample height and width useing the upsample_h, upsample_w parameters.
I1217 21:22:07.592290 30861 net.cpp:157] Setting up g_upsample_1
I1217 21:22:07.592298 30861 net.cpp:164] Top shape: 1 64 32 32 (65536)
I1217 21:22:07.592303 30861 net.cpp:172] Memory required for data: 5783568
I1217 21:22:07.592309 30861 layer_factory.hpp:77] Creating layer g_conv_6
I1217 21:22:07.592321 30861 net.cpp:107] Creating Layer g_conv_6
I1217 21:22:07.592329 30861 net.cpp:445] g_conv_6 <- g_upsample_1
I1217 21:22:07.592339 30861 net.cpp:419] g_conv_6 -> g_conv_6
I1217 21:22:07.592500 30861 net.cpp:157] Setting up g_conv_6
I1217 21:22:07.592512 30861 net.cpp:164] Top shape: 1 32 32 32 (32768)
I1217 21:22:07.592519 30861 net.cpp:172] Memory required for data: 5914640
I1217 21:22:07.592526 30861 layer_factory.hpp:77] Creating layer g_bn_6
I1217 21:22:07.592535 30861 net.cpp:107] Creating Layer g_bn_6
I1217 21:22:07.592542 30861 net.cpp:445] g_bn_6 <- g_conv_6
I1217 21:22:07.592550 30861 net.cpp:406] g_bn_6 -> g_conv_6 (in-place)
I1217 21:22:07.592566 30861 net.cpp:157] Setting up g_bn_6
I1217 21:22:07.592573 30861 net.cpp:164] Top shape: 1 32 32 32 (32768)
I1217 21:22:07.592579 30861 net.cpp:172] Memory required for data: 6045712
I1217 21:22:07.592591 30861 layer_factory.hpp:77] Creating layer g_scale_6
I1217 21:22:07.592598 30861 net.cpp:107] Creating Layer g_scale_6
I1217 21:22:07.592605 30861 net.cpp:445] g_scale_6 <- g_conv_6
I1217 21:22:07.592613 30861 net.cpp:406] g_scale_6 -> g_conv_6 (in-place)
I1217 21:22:07.592625 30861 layer_factory.hpp:77] Creating layer g_scale_6
I1217 21:22:07.592643 30861 net.cpp:157] Setting up g_scale_6
I1217 21:22:07.592653 30861 net.cpp:164] Top shape: 1 32 32 32 (32768)
I1217 21:22:07.592658 30861 net.cpp:172] Memory required for data: 6176784
I1217 21:22:07.592667 30861 layer_factory.hpp:77] Creating layer g_relu_6
I1217 21:22:07.592675 30861 net.cpp:107] Creating Layer g_relu_6
I1217 21:22:07.592681 30861 net.cpp:445] g_relu_6 <- g_conv_6
I1217 21:22:07.592689 30861 net.cpp:406] g_relu_6 -> g_conv_6 (in-place)
I1217 21:22:07.592699 30861 net.cpp:157] Setting up g_relu_6
I1217 21:22:07.592705 30861 net.cpp:164] Top shape: 1 32 32 32 (32768)
I1217 21:22:07.592711 30861 net.cpp:172] Memory required for data: 6307856
I1217 21:22:07.592717 30861 layer_factory.hpp:77] Creating layer g_upsample_2
I1217 21:22:07.592730 30861 net.cpp:107] Creating Layer g_upsample_2
I1217 21:22:07.592743 30861 net.cpp:445] g_upsample_2 <- g_conv_6
I1217 21:22:07.592751 30861 net.cpp:445] g_upsample_2 <- g_pooling_2_mask
I1217 21:22:07.592761 30861 net.cpp:419] g_upsample_2 -> g_upsample_2
I1217 21:22:07.592769 30861 upsample_layer.cpp:31] Params 'pad_out_{}_' are deprecated. Please declare upsample height and width useing the upsample_h, upsample_w parameters.
I1217 21:22:07.592777 30861 net.cpp:157] Setting up g_upsample_2
I1217 21:22:07.592785 30861 net.cpp:164] Top shape: 1 32 64 64 (131072)
I1217 21:22:07.592792 30861 net.cpp:172] Memory required for data: 6832144
I1217 21:22:07.592797 30861 layer_factory.hpp:77] Creating layer g_conv_7
I1217 21:22:07.592809 30861 net.cpp:107] Creating Layer g_conv_7
I1217 21:22:07.592816 30861 net.cpp:445] g_conv_7 <- g_upsample_2
I1217 21:22:07.592825 30861 net.cpp:419] g_conv_7 -> g_conv_7
I1217 21:22:07.592988 30861 net.cpp:157] Setting up g_conv_7
I1217 21:22:07.592999 30861 net.cpp:164] Top shape: 1 64 64 64 (262144)
I1217 21:22:07.593004 30861 net.cpp:172] Memory required for data: 7880720
I1217 21:22:07.593013 30861 layer_factory.hpp:77] Creating layer g_bn_7
I1217 21:22:07.593021 30861 net.cpp:107] Creating Layer g_bn_7
I1217 21:22:07.593027 30861 net.cpp:445] g_bn_7 <- g_conv_7
I1217 21:22:07.593034 30861 net.cpp:406] g_bn_7 -> g_conv_7 (in-place)
I1217 21:22:07.593051 30861 net.cpp:157] Setting up g_bn_7
I1217 21:22:07.593060 30861 net.cpp:164] Top shape: 1 64 64 64 (262144)
I1217 21:22:07.593065 30861 net.cpp:172] Memory required for data: 8929296
I1217 21:22:07.593075 30861 layer_factory.hpp:77] Creating layer g_scale_7
I1217 21:22:07.593085 30861 net.cpp:107] Creating Layer g_scale_7
I1217 21:22:07.593091 30861 net.cpp:445] g_scale_7 <- g_conv_7
I1217 21:22:07.593098 30861 net.cpp:406] g_scale_7 -> g_conv_7 (in-place)
I1217 21:22:07.593111 30861 layer_factory.hpp:77] Creating layer g_scale_7
I1217 21:22:07.593137 30861 net.cpp:157] Setting up g_scale_7
I1217 21:22:07.593145 30861 net.cpp:164] Top shape: 1 64 64 64 (262144)
I1217 21:22:07.593150 30861 net.cpp:172] Memory required for data: 9977872
I1217 21:22:07.593159 30861 layer_factory.hpp:77] Creating layer g_relu_7
I1217 21:22:07.593168 30861 net.cpp:107] Creating Layer g_relu_7
I1217 21:22:07.593173 30861 net.cpp:445] g_relu_7 <- g_conv_7
I1217 21:22:07.593180 30861 net.cpp:406] g_relu_7 -> g_conv_7 (in-place)
I1217 21:22:07.593189 30861 net.cpp:157] Setting up g_relu_7
I1217 21:22:07.593195 30861 net.cpp:164] Top shape: 1 64 64 64 (262144)
I1217 21:22:07.593201 30861 net.cpp:172] Memory required for data: 11026448
I1217 21:22:07.593206 30861 layer_factory.hpp:77] Creating layer concat
I1217 21:22:07.593215 30861 net.cpp:107] Creating Layer concat
I1217 21:22:07.593221 30861 net.cpp:445] concat <- gray_image_input_data_0_split_1
I1217 21:22:07.593228 30861 net.cpp:445] concat <- g_conv_7
I1217 21:22:07.593236 30861 net.cpp:419] concat -> concat
I1217 21:22:07.593247 30861 net.cpp:157] Setting up concat
I1217 21:22:07.593255 30861 net.cpp:164] Top shape: 1 66 64 64 (270336)
I1217 21:22:07.593261 30861 net.cpp:172] Memory required for data: 12107792
I1217 21:22:07.593276 30861 layer_factory.hpp:77] Creating layer g_conv_8
I1217 21:22:07.593299 30861 net.cpp:107] Creating Layer g_conv_8
I1217 21:22:07.593307 30861 net.cpp:445] g_conv_8 <- concat
I1217 21:22:07.593317 30861 net.cpp:419] g_conv_8 -> g_conv_8
I1217 21:22:07.593503 30861 net.cpp:157] Setting up g_conv_8
I1217 21:22:07.593515 30861 net.cpp:164] Top shape: 1 32 64 64 (131072)
I1217 21:22:07.593521 30861 net.cpp:172] Memory required for data: 12632080
I1217 21:22:07.593530 30861 layer_factory.hpp:77] Creating layer g_relu_8
I1217 21:22:07.593550 30861 net.cpp:107] Creating Layer g_relu_8
I1217 21:22:07.593557 30861 net.cpp:445] g_relu_8 <- g_conv_8
I1217 21:22:07.593566 30861 net.cpp:406] g_relu_8 -> g_conv_8 (in-place)
I1217 21:22:07.593575 30861 net.cpp:157] Setting up g_relu_8
I1217 21:22:07.593582 30861 net.cpp:164] Top shape: 1 32 64 64 (131072)
I1217 21:22:07.593592 30861 net.cpp:172] Memory required for data: 13156368
I1217 21:22:07.593605 30861 layer_factory.hpp:77] Creating layer g_conv_9
I1217 21:22:07.593616 30861 net.cpp:107] Creating Layer g_conv_9
I1217 21:22:07.593622 30861 net.cpp:445] g_conv_9 <- g_conv_8
I1217 21:22:07.593632 30861 net.cpp:419] g_conv_9 -> g_conv_9
I1217 21:22:07.593667 30861 net.cpp:157] Setting up g_conv_9
I1217 21:22:07.593675 30861 net.cpp:164] Top shape: 1 3 64 64 (12288)
I1217 21:22:07.593682 30861 net.cpp:172] Memory required for data: 13205520
I1217 21:22:07.593689 30861 layer_factory.hpp:77] Creating layer output
I1217 21:22:07.593926 30861 net.cpp:107] Creating Layer output
I1217 21:22:07.593940 30861 net.cpp:445] output <- g_conv_9
I1217 21:22:07.593947 30861 net.cpp:445] output <- color_image
I1217 21:22:07.593955 30861 net.cpp:445] output <- label
I1217 21:22:07.593961 30861 net.cpp:445] output <- label_g
I1217 21:22:07.593971 30861 net.cpp:419] output -> output
I1217 21:22:07.594518 30861 net.cpp:157] Setting up output
I1217 21:22:07.594533 30861 net.cpp:164] Top shape: 1 (1)
I1217 21:22:07.594538 30861 net.cpp:172] Memory required for data: 13205524
I1217 21:22:07.594545 30861 net.cpp:239] output does not need backward computation.
I1217 21:22:07.594552 30861 net.cpp:239] g_conv_9 does not need backward computation.
I1217 21:22:07.594558 30861 net.cpp:239] g_relu_8 does not need backward computation.
I1217 21:22:07.594564 30861 net.cpp:239] g_conv_8 does not need backward computation.
…
